…
I1108 14:52:29.187659  4941 net.cpp:322] The NetState phase (0) differed from the phase (1) specified by a rule in layer accuracy
I1108 14:52:29.187783  4941 net.cpp:58] Initializing net from parameters: 
name: "VGG_CNN_M_2048"
state {
  phase: TRAIN
  level: 0
  stage: ""
}
layer {
  name: "train_data"
  type: "Data"
  top: "data"
  top: "label"
  include {
    phase: TRAIN
  }
  transform_param {
    scale: 0.00390625
  }
  data_param {
    source: "/home/hadoop/whx/dataset/hmdb/jpg_output/hmdb51_train_lmdb/split1"
    batch_size: 64
    backend: LMDB
  }
}
layer {
  name: "conv1"
  type: "Convolution"
  bottom: "data"
  top: "conv1"
  convolution_param {
    num_output: 96
    kernel_size: 7
    stride: 2
  }
}
layer {
  name: "relu1"
  type: "ReLU"
  bottom: "conv1"
  top: "conv1"
}
layer {
  name: "norm1"
  type: "LRN"
  bottom: "conv1"
  top: "norm1"
  lrn_param {
    local_size: 5
    alpha: 0.0005
    beta: 0.75
    k: 2
  }
}
layer {
  name: "pool1"
  type: "Pooling"
  bottom: "norm1"
  top: "pool1"
  pooling_param {
    pool: MAX
    kernel_size: 3
    stride: 2
  }
}
layer {
  name: "conv2"
  type: "Convolution"
  bottom: "pool1"
  top: "conv2"
  convolution_param {
    num_output: 256
    pad: 1
    kernel_size: 5
    stride: 2
  }
}
layer {
  name: "relu2"
  type: "ReLU"
  bottom: "conv2"
  top: "conv2"
}
layer {
  name: "norm2"
  type: "LRN"
  bottom: "conv2"
  top: "norm2"
  lrn_param {
    local_size: 5
    alpha: 0.0005
    beta: 0.75
    k: 2
  }
}
layer {
  name: "pool2"
  type: "Pooling"
  bottom: "norm2"
  top: "pool2"
  pooling_param {
    pool: MAX
    kernel_size: 3
    stride: 2
  }
}
layer {
  name: "conv3"
  type: "Convolution"
  bottom: "pool2"
  top: "conv3"
  convolution_param {
    num_output: 512
    pad: 1
    kernel_size: 3
    stride: 1
  }
}
layer {
  name: "relu3"
  type: "ReLU"
  bottom: "conv3"
  top: "conv3"
}
layer {
  name: "conv4"
  type: "Convolution"
  bottom: "conv3"
  top: "conv4"
  convolution_param {
    num_output: 512
    pad: 1
    kernel_size: 3
    stride: 1
  }
}
layer {
  name: "relu4"
  type: "ReLU"
  bottom: "conv4"
  top: "conv4"
}
layer {
  name: "conv5"
  type: "Convolution"
  bottom: "conv4"
  top: "conv5"
  convolution_param {
    num_output: 512
    pad: 1
    kernel_size: 3
    stride: 1
  }
}
layer {
  name: "relu5"
  type: "ReLU"
  bottom: "conv5"
  top: "conv5"
}
layer {
  name: "pool5"
  type: "Pooling"
  bottom: "conv5"
  top: "pool5"
  pooling_param {
    pool: MAX
    kernel_size: 3
    stride: 2
  }
}
layer {
  name: "fc6"
  type: "InnerProduct"
  bottom: "pool5"
  top: "fc6"
  inner_product_param {
    num_output: 4096
  }
}
layer {
  name: "relu6"
  type: "ReLU"
  bottom: "fc6"
  top: "fc6"
}
layer {
  name: "drop6"
  type: "Dropout"
  bottom: "fc6"
  top: "fc6"
  dropout_param {
    dropout_ratio: 0.5
  }
}
layer {
  name: "fc7"
  type: "InnerProduct"
  bottom: "fc6"
  top: "fc7"
  inner_product_param {
    num_output: 2048
  }
}
layer {
  name: "relu7"
  type: "ReLU"
  bottom: "fc7"
  top: "fc7"
}
layer {
  name: "drop7"
  type: "Dropout"
  bottom: "fc7"
  top: "fc7"
  dropout_param {
    dropout_ratio: 0.5
  }
}
layer {
  name: "fc8_hmdb"
  type: "InnerProduct"
  bottom: "fc7"
  top: "fc8"
  inner_product_param {
    num_output: 51
  }
}
layer {
  name: "loss"
  type: "SoftmaxWithLoss"
  bottom: "fc8"
  bottom: "label"
  top: "loss"
}
I1108 14:52:29.187860  4941 layer_factory.hpp:77] Creating layer train_data
I1108 14:52:29.188316  4941 net.cpp:100] Creating Layer train_data
I1108 14:52:29.188325  4941 net.cpp:408] train_data -> data
I1108 14:52:29.188341  4941 net.cpp:408] train_data -> label
I1108 14:52:29.215416  4952 db_lmdb.cpp:35] Opened lmdb /home/hadoop/whx/dataset/hmdb/jpg_output/hmdb51_train_lmdb/split1
I1108 14:52:29.239719  4941 data_layer.cpp:41] output data size: 64,3,224,224
I1108 14:52:29.278749  4941 net.cpp:150] Setting up train_data
I1108 14:52:29.278781  4941 net.cpp:157] Top shape: 64 3 224 224 (9633792)
I1108 14:52:29.278789  4941 net.cpp:157] Top shape: 64 (64)
I1108 14:52:29.278791  4941 net.cpp:165] Memory required for data: 38535424
I1108 14:52:29.278798  4941 layer_factory.hpp:77] Creating layer conv1
I1108 14:52:29.278817  4941 net.cpp:100] Creating Layer conv1
I1108 14:52:29.278822  4941 net.cpp:434] conv1 <- data
I1108 14:52:29.278832  4941 net.cpp:408] conv1 -> conv1
I1108 14:52:29.418699  4941 net.cpp:150] Setting up conv1
I1108 14:52:29.418726  4941 net.cpp:157] Top shape: 64 96 109 109 (72996864)
I1108 14:52:29.418730  4941 net.cpp:165] Memory required for data: 330522880
I1108 14:52:29.418743  4941 layer_factory.hpp:77] Creating layer relu1
I1108 14:52:29.418790  4941 net.cpp:100] Creating Layer relu1
I1108 14:52:29.418797  4941 net.cpp:434] relu1 <- conv1
I1108 14:52:29.418802  4941 net.cpp:395] relu1 -> conv1 (in-place)
I1108 14:52:29.418980  4941 net.cpp:150] Setting up relu1
I1108 14:52:29.418989  4941 net.cpp:157] Top shape: 64 96 109 109 (72996864)
I1108 14:52:29.418992  4941 net.cpp:165] Memory required for data: 622510336
I1108 14:52:29.418998  4941 layer_factory.hpp:77] Creating layer norm1
I1108 14:52:29.419006  4941 net.cpp:100] Creating Layer norm1
I1108 14:52:29.419009  4941 net.cpp:434] norm1 <- conv1
I1108 14:52:29.419013  4941 net.cpp:408] norm1 -> norm1
I1108 14:52:29.419203  4941 net.cpp:150] Setting up norm1
I1108 14:52:29.419212  4941 net.cpp:157] Top shape: 64 96 109 109 (72996864)
I1108 14:52:29.419215  4941 net.cpp:165] Memory required for data: 914497792
I1108 14:52:29.419219  4941 layer_factory.hpp:77] Creating layer pool1
I1108 14:52:29.419224  4941 net.cpp:100] Creating Layer pool1
I1108 14:52:29.419227  4941 net.cpp:434] pool1 <- norm1
I1108 14:52:29.419231  4941 net.cpp:408] pool1 -> pool1
I1108 14:52:29.419257  4941 net.cpp:150] Setting up pool1
I1108 14:52:29.419265  4941 net.cpp:157] Top shape: 64 96 54 54 (17915904)
I1108 14:52:29.419267  4941 net.cpp:165] Memory required for data: 986161408
I1108 14:52:29.419270  4941 layer_factory.hpp:77] Creating layer conv2
I1108 14:52:29.419278  4941 net.cpp:100] Creating Layer conv2
I1108 14:52:29.419281  4941 net.cpp:434] conv2 <- pool1
I1108 14:52:29.419286  4941 net.cpp:408] conv2 -> conv2
I1108 14:52:29.420712  4941 net.cpp:150] Setting up conv2
I1108 14:52:29.420723  4941 net.cpp:157] Top shape: 64 256 26 26 (11075584)
I1108 14:52:29.420727  4941 net.cpp:165] Memory required for data: 1030463744
I1108 14:52:29.420733  4941 layer_factory.hpp:77] Creating layer relu2
I1108 14:52:29.420739  4941 net.cpp:100] Creating Layer relu2
I1108 14:52:29.420742  4941 net.cpp:434] relu2 <- conv2
I1108 14:52:29.420745  4941 net.cpp:395] relu2 -> conv2 (in-place)
I1108 14:52:29.420918  4941 net.cpp:150] Setting up relu2
I1108 14:52:29.420927  4941 net.cpp:157] Top shape: 64 256 26 26 (11075584)
I1108 14:52:29.420929  4941 net.cpp:165] Memory required for data: 1074766080
I1108 14:52:29.420933  4941 layer_factory.hpp:77] Creating layer norm2
I1108 14:52:29.420938  4941 net.cpp:100] Creating Layer norm2
I1108 14:52:29.420940  4941 net.cpp:434] norm2 <- conv2
I1108 14:52:29.420944  4941 net.cpp:408] norm2 -> norm2
I1108 14:52:29.421066  4941 net.cpp:150] Setting up norm2
I1108 14:52:29.421073  4941 net.cpp:157] Top shape: 64 256 26 26 (11075584)
I1108 14:52:29.421077  4941 net.cpp:165] Memory required for data: 1119068416
I1108 14:52:29.421078  4941 layer_factory.hpp:77] Creating layer pool2
I1108 14:52:29.421084  4941 net.cpp:100] Creating Layer pool2
I1108 14:52:29.421097  4941 net.cpp:434] pool2 <- norm2
I1108 14:52:29.421102  4941 net.cpp:408] pool2 -> pool2
I1108 14:52:29.421125  4941 net.cpp:150] Setting up pool2
I1108 14:52:29.421131  4941 net.cpp:157] Top shape: 64 256 13 13 (2768896)
I1108 14:52:29.421133  4941 net.cpp:165] Memory required for data: 1130144000
I1108 14:52:29.421136  4941 layer_factory.hpp:77] Creating layer conv3
I1108 14:52:29.421141  4941 net.cpp:100] Creating Layer conv3
I1108 14:52:29.421144  4941 net.cpp:434] conv3 <- pool2
I1108 14:52:29.421150  4941 net.cpp:408] conv3 -> conv3
I1108 14:52:29.423033  4941 net.cpp:150] Setting up conv3
I1108 14:52:29.423049  4941 net.cpp:157] Top shape: 64 512 13 13 (5537792)
I1108 14:52:29.423053  4941 net.cpp:165] Memory required for data: 1152295168
I1108 14:52:29.423059  4941 layer_factory.hpp:77] Creating layer relu3
I1108 14:52:29.423066  4941 net.cpp:100] Creating Layer relu3
I1108 14:52:29.423069  4941 net.cpp:434] relu3 <- conv3
I1108 14:52:29.423074  4941 net.cpp:395] relu3 -> conv3 (in-place)
I1108 14:52:29.423244  4941 net.cpp:150] Setting up relu3
I1108 14:52:29.423252  4941 net.cpp:157] Top shape: 64 512 13 13 (5537792)
I1108 14:52:29.423255  4941 net.cpp:165] Memory required for data: 1174446336
I1108 14:52:29.423259  4941 layer_factory.hpp:77] Creating layer conv4
I1108 14:52:29.423265  4941 net.cpp:100] Creating Layer conv4
I1108 14:52:29.423269  4941 net.cpp:434] conv4 <- conv3
I1108 14:52:29.423274  4941 net.cpp:408] conv4 -> conv4
I1108 14:52:29.426861  4941 net.cpp:150] Setting up conv4
I1108 14:52:29.426887  4941 net.cpp:157] Top shape: 64 512 13 13 (5537792)
I1108 14:52:29.426890  4941 net.cpp:165] Memory required for data: 1196597504
I1108 14:52:29.426898  4941 layer_factory.hpp:77] Creating layer relu4
I1108 14:52:29.426905  4941 net.cpp:100] Creating Layer relu4
I1108 14:52:29.426908  4941 net.cpp:434] relu4 <- conv4
I1108 14:52:29.426914  4941 net.cpp:395] relu4 -> conv4 (in-place)
I1108 14:52:29.427021  4941 net.cpp:150] Setting up relu4
I1108 14:52:29.427027  4941 net.cpp:157] Top shape: 64 512 13 13 (5537792)
I1108 14:52:29.427031  4941 net.cpp:165] Memory required for data: 1218748672
I1108 14:52:29.427032  4941 layer_factory.hpp:77] Creating layer conv5
I1108 14:52:29.427039  4941 net.cpp:100] Creating Layer conv5
I1108 14:52:29.427042  4941 net.cpp:434] conv5 <- conv4
I1108 14:52:29.427047  4941 net.cpp:408] conv5 -> conv5
I1108 14:52:29.430578  4941 net.cpp:150] Setting up conv5
I1108 14:52:29.430606  4941 net.cpp:157] Top shape: 64 512 13 13 (5537792)
I1108 14:52:29.430609  4941 net.cpp:165] Memory required for data: 1240899840
I1108 14:52:29.430620  4941 layer_factory.hpp:77] Creating layer relu5
I1108 14:52:29.430629  4941 net.cpp:100] Creating Layer relu5
I1108 14:52:29.430632  4941 net.cpp:434] relu5 <- conv5
I1108 14:52:29.430637  4941 net.cpp:395] relu5 -> conv5 (in-place)
I1108 14:52:29.430745  4941 net.cpp:150] Setting up relu5
I1108 14:52:29.430752  4941 net.cpp:157] Top shape: 64 512 13 13 (5537792)
I1108 14:52:29.430754  4941 net.cpp:165] Memory required for data: 1263051008
I1108 14:52:29.430757  4941 layer_factory.hpp:77] Creating layer pool5
I1108 14:52:29.430763  4941 net.cpp:100] Creating Layer pool5
I1108 14:52:29.430764  4941 net.cpp:434] pool5 <- conv5
I1108 14:52:29.430769  4941 net.cpp:408] pool5 -> pool5
I1108 14:52:29.430796  4941 net.cpp:150] Setting up pool5
I1108 14:52:29.430804  4941 net.cpp:157] Top shape: 64 512 6 6 (1179648)
I1108 14:52:29.430805  4941 net.cpp:165] Memory required for data: 1267769600
I1108 14:52:29.430809  4941 layer_factory.hpp:77] Creating layer fc6
I1108 14:52:29.430815  4941 net.cpp:100] Creating Layer fc6
I1108 14:52:29.430817  4941 net.cpp:434] fc6 <- pool5
I1108 14:52:29.430821  4941 net.cpp:408] fc6 -> fc6
I1108 14:52:29.524022  4941 net.cpp:150] Setting up fc6
I1108 14:52:29.524050  4941 net.cpp:157] Top shape: 64 4096 (262144)
I1108 14:52:29.524054  4941 net.cpp:165] Memory required for data: 1268818176
I1108 14:52:29.524060  4941 layer_factory.hpp:77] Creating layer relu6
I1108 14:52:29.524070  4941 net.cpp:100] Creating Layer relu6
I1108 14:52:29.524090  4941 net.cpp:434] relu6 <- fc6
I1108 14:52:29.524094  4941 net.cpp:395] relu6 -> fc6 (in-place)
I1108 14:52:29.524319  4941 net.cpp:150] Setting up relu6
I1108 14:52:29.524328  4941 net.cpp:157] Top shape: 64 4096 (262144)
I1108 14:52:29.524332  4941 net.cpp:165] Memory required for data: 1269866752
I1108 14:52:29.524333  4941 layer_factory.hpp:77] Creating layer drop6
I1108 14:52:29.524340  4941 net.cpp:100] Creating Layer drop6
I1108 14:52:29.524343  4941 net.cpp:434] drop6 <- fc6
I1108 14:52:29.524346  4941 net.cpp:395] drop6 -> fc6 (in-place)
I1108 14:52:29.524365  4941 net.cpp:150] Setting up drop6
I1108 14:52:29.524371  4941 net.cpp:157] Top shape: 64 4096 (262144)
I1108 14:52:29.524374  4941 net.cpp:165] Memory required for data: 1270915328
I1108 14:52:29.524375  4941 layer_factory.hpp:77] Creating layer fc7
I1108 14:52:29.524380  4941 net.cpp:100] Creating Layer fc7
I1108 14:52:29.524384  4941 net.cpp:434] fc7 <- fc6
I1108 14:52:29.524387  4941 net.cpp:408] fc7 -> fc7
I1108 14:52:29.534857  4941 net.cpp:150] Setting up fc7
I1108 14:52:29.534886  4941 net.cpp:157] Top shape: 64 2048 (131072)
I1108 14:52:29.534889  4941 net.cpp:165] Memory required for data: 1271439616
I1108 14:52:29.534896  4941 layer_factory.hpp:77] Creating layer relu7
I1108 14:52:29.534904  4941 net.cpp:100] Creating Layer relu7
I1108 14:52:29.534909  4941 net.cpp:434] relu7 <- fc7
I1108 14:52:29.534916  4941 net.cpp:395] relu7 -> fc7 (in-place)
I1108 14:52:29.535176  4941 net.cpp:150] Setting up relu7
I1108 14:52:29.535184  4941 net.cpp:157] Top shape: 64 2048 (131072)
I1108 14:52:29.535187  4941 net.cpp:165] Memory required for data: 1271963904
I1108 14:52:29.535189  4941 layer_factory.hpp:77] Creating layer drop7
I1108 14:52:29.535195  4941 net.cpp:100] Creating Layer drop7
I1108 14:52:29.535198  4941 net.cpp:434] drop7 <- fc7
I1108 14:52:29.535202  4941 net.cpp:395] drop7 -> fc7 (in-place)
I1108 14:52:29.535221  4941 net.cpp:150] Setting up drop7
I1108 14:52:29.535225  4941 net.cpp:157] Top shape: 64 2048 (131072)
I1108 14:52:29.535228  4941 net.cpp:165] Memory required for data: 1272488192
I1108 14:52:29.535230  4941 layer_factory.hpp:77] Creating layer fc8_hmdb
I1108 14:52:29.535235  4941 net.cpp:100] Creating Layer fc8_hmdb
I1108 14:52:29.535238  4941 net.cpp:434] fc8_hmdb <- fc7
I1108 14:52:29.535241  4941 net.cpp:408] fc8_hmdb -> fc8
I1108 14:52:29.535590  4941 net.cpp:150] Setting up fc8_hmdb
I1108 14:52:29.535599  4941 net.cpp:157] Top shape: 64 51 (3264)
I1108 14:52:29.535601  4941 net.cpp:165] Memory required for data: 1272501248
I1108 14:52:29.535605  4941 layer_factory.hpp:77] Creating layer loss
I1108 14:52:29.535610  4941 net.cpp:100] Creating Layer loss
I1108 14:52:29.535614  4941 net.cpp:434] loss <- fc8
I1108 14:52:29.535616  4941 net.cpp:434] loss <- label
I1108 14:52:29.535622  4941 net.cpp:408] loss -> loss
I1108 14:52:29.535632  4941 layer_factory.hpp:77] Creating layer loss
…
I1108 14:52:29.536305  4941 solver.cpp:181] Creating test net (#0) specified by net file: mywork/hmdb51/vgg_m_2048_net.prototxt
I1108 14:52:29.536336  4941 net.cpp:322] The NetState phase (1) differed from the phase (0) specified by a rule in layer train_data
I1108 14:52:29.536464  4941 net.cpp:58] Initializing net from parameters: 
name: "VGG_CNN_M_2048"
state {
  phase: TEST
}
layer {
  name: "test_data"
  type: "Data"
  top: "data"
  top: "label"
  include {
    phase: TEST
  }
  transform_param {
    scale: 0.00390625
  }
  data_param {
    source: "/home/hadoop/whx/dataset/hmdb/jpg_output/hmdb51_val_lmdb/split1"
    batch_size: 64
    backend: LMDB
  }
}
layer {
  name: "conv1"
  type: "Convolution"
  bottom: "data"
  top: "conv1"
  convolution_param {
    num_output: 96
    kernel_size: 7
    stride: 2
  }
}
layer {
  name: "relu1"
  type: "ReLU"
  bottom: "conv1"
  top: "conv1"
}
layer {
  name: "norm1"
  type: "LRN"
  bottom: "conv1"
  top: "norm1"
  lrn_param {
    local_size: 5
    alpha: 0.0005
    beta: 0.75
    k: 2
  }
}
layer {
  name: "pool1"
  type: "Pooling"
  bottom: "norm1"
  top: "pool1"
  pooling_param {
    pool: MAX
    kernel_size: 3
    stride: 2
  }
}
layer {
  name: "conv2"
  type: "Convolution"
  bottom: "pool1"
  top: "conv2"
  convolution_param {
    num_output: 256
    pad: 1
    kernel_size: 5
    stride: 2
  }
}
layer {
  name: "relu2"
  type: "ReLU"
  bottom: "conv2"
  top: "conv2"
}
layer {
  name: "norm2"
  type: "LRN"
  bottom: "conv2"
  top: "norm2"
  lrn_param {
    local_size: 5
    alpha: 0.0005
    beta: 0.75
    k: 2
  }
}
layer {
  name: "pool2"
  type: "Pooling"
  bottom: "norm2"
  top: "pool2"
  pooling_param {
    pool: MAX
    kernel_size: 3
    stride: 2
  }
}
layer {
  name: "conv3"
  type: "Convolution"
  bottom: "pool2"
  top: "conv3"
  convolution_param {
    num_output: 512
    pad: 1
    kernel_size: 3
    stride: 1
  }
}
layer {
  name: "relu3"
  type: "ReLU"
  bottom: "conv3"
  top: "conv3"
}
layer {
  name: "conv4"
  type: "Convolution"
  bottom: "conv3"
  top: "conv4"
  convolution_param {
    num_output: 512
    pad: 1
    kernel_size: 3
    stride: 1
  }
}
layer {
  name: "relu4"
  type: "ReLU"
  bottom: "conv4"
  top: "conv4"
}
layer {
  name: "conv5"
  type: "Convolution"
  bottom: "conv4"
  top: "conv5"
  convolution_param {
    num_output: 512
    pad: 1
    kernel_size: 3
    stride: 1
  }
}
layer {
  name: "relu5"
  type: "ReLU"
  bottom: "conv5"
  top: "conv5"
}
layer {
  name: "pool5"
  type: "Pooling"
  bottom: "conv5"
  top: "pool5"
  pooling_param {
    pool: MAX
    kernel_size: 3
    stride: 2
  }
}
layer {
  name: "fc6"
  type: "InnerProduct"
  bottom: "pool5"
  top: "fc6"
  inner_product_param {
    num_output: 4096
  }
}
layer {
  name: "relu6"
  type: "ReLU"
  bottom: "fc6"
  top: "fc6"
}
layer {
  name: "drop6"
  type: "Dropout"
  bottom: "fc6"
  top: "fc6"
  dropout_param {
    dropout_ratio: 0.5
  }
}
layer {
  name: "fc7"
  type: "InnerProduct"
  bottom: "fc6"
  top: "fc7"
  inner_product_param {
    num_output: 2048
  }
}
layer {
  name: "relu7"
  type: "ReLU"
  bottom: "fc7"
  top: "fc7"
}
layer {
  name: "drop7"
  type: "Dropout"
  bottom: "fc7"
  top: "fc7"
  dropout_param {
    dropout_ratio: 0.5
  }
}
layer {
  name: "fc8_hmdb"
  type: "InnerProduct"
  bottom: "fc7"
  top: "fc8"
  inner_product_param {
    num_output: 51
  }
}
layer {
  name: "loss"
  type: "SoftmaxWithLoss"
  bottom: "fc8"
  bottom: "label"
  top: "loss"
}
layer {
  name: "accuracy"
  type: "Accuracy"
  bottom: "fc8"
  bottom: "label"
  top: "accuracy"
  include {
    phase: TEST
  }
}
I1108 14:52:29.536540  4941 layer_factory.hpp:77] Creating layer test_data
I1108 14:52:29.536602  4941 net.cpp:100] Creating Layer test_data
I1108 14:52:29.536607  4941 net.cpp:408] test_data -> data
I1108 14:52:29.536613  4941 net.cpp:408] test_data -> label
I1108 14:52:29.559334  4954 db_lmdb.cpp:35] Opened lmdb /home/hadoop/whx/dataset/hmdb/jpg_output/hmdb51_val_lmdb/split1
I1108 14:52:29.593859  4941 data_layer.cpp:41] output data size: 64,3,224,224
I1108 14:52:29.632364  4941 net.cpp:150] Setting up test_data
I1108 14:52:29.632387  4941 net.cpp:157] Top shape: 64 3 224 224 (9633792)
I1108 14:52:29.632392  4941 net.cpp:157] Top shape: 64 (64)
I1108 14:52:29.632395  4941 net.cpp:165] Memory required for data: 38535424
I1108 14:52:29.632400  4941 layer_factory.hpp:77] Creating layer label_test_data_1_split
I1108 14:52:29.632411  4941 net.cpp:100] Creating Layer label_test_data_1_split
I1108 14:52:29.632413  4941 net.cpp:434] label_test_data_1_split <- label
I1108 14:52:29.632418  4941 net.cpp:408] label_test_data_1_split -> label_test_data_1_split_0
I1108 14:52:29.632426  4941 net.cpp:408] label_test_data_1_split -> label_test_data_1_split_1
I1108 14:52:29.632513  4941 net.cpp:150] Setting up label_test_data_1_split
I1108 14:52:29.632524  4941 net.cpp:157] Top shape: 64 (64)
I1108 14:52:29.632526  4941 net.cpp:157] Top shape: 64 (64)
I1108 14:52:29.632529  4941 net.cpp:165] Memory required for data: 38535936
I1108 14:52:29.632531  4941 layer_factory.hpp:77] Creating layer conv1
I1108 14:52:29.632540  4941 net.cpp:100] Creating Layer conv1
I1108 14:52:29.632544  4941 net.cpp:434] conv1 <- data
I1108 14:52:29.632546  4941 net.cpp:408] conv1 -> conv1
I1108 14:52:29.636947  4941 net.cpp:150] Setting up conv1
I1108 14:52:29.636965  4941 net.cpp:157] Top shape: 64 96 109 109 (72996864)
I1108 14:52:29.636968  4941 net.cpp:165] Memory required for data: 330523392
I1108 14:52:29.636976  4941 layer_factory.hpp:77] Creating layer relu1
I1108 14:52:29.636981  4941 net.cpp:100] Creating Layer relu1
I1108 14:52:29.636983  4941 net.cpp:434] relu1 <- conv1
I1108 14:52:29.636987  4941 net.cpp:395] relu1 -> conv1 (in-place)
I1108 14:52:29.637104  4941 net.cpp:150] Setting up relu1
I1108 14:52:29.637110  4941 net.cpp:157] Top shape: 64 96 109 109 (72996864)
I1108 14:52:29.637115  4941 net.cpp:165] Memory required for data: 622510848
I1108 14:52:29.637116  4941 layer_factory.hpp:77] Creating layer norm1
I1108 14:52:29.637125  4941 net.cpp:100] Creating Layer norm1
I1108 14:52:29.637127  4941 net.cpp:434] norm1 <- conv1
I1108 14:52:29.637130  4941 net.cpp:408] norm1 -> norm1
I1108 14:52:29.637326  4941 net.cpp:150] Setting up norm1
I1108 14:52:29.637334  4941 net.cpp:157] Top shape: 64 96 109 109 (72996864)
I1108 14:52:29.637337  4941 net.cpp:165] Memory required for data: 914498304
I1108 14:52:29.637342  4941 layer_factory.hpp:77] Creating layer pool1
I1108 14:52:29.637349  4941 net.cpp:100] Creating Layer pool1
I1108 14:52:29.637352  4941 net.cpp:434] pool1 <- norm1
I1108 14:52:29.637356  4941 net.cpp:408] pool1 -> pool1
I1108 14:52:29.637382  4941 net.cpp:150] Setting up pool1
I1108 14:52:29.637387  4941 net.cpp:157] Top shape: 64 96 54 54 (17915904)
I1108 14:52:29.637388  4941 net.cpp:165] Memory required for data: 986161920
I1108 14:52:29.637392  4941 layer_factory.hpp:77] Creating layer conv2
I1108 14:52:29.637398  4941 net.cpp:100] Creating Layer conv2
I1108 14:52:29.637399  4941 net.cpp:434] conv2 <- pool1
I1108 14:52:29.637403  4941 net.cpp:408] conv2 -> conv2
I1108 14:52:29.638756  4941 net.cpp:150] Setting up conv2
I1108 14:52:29.638772  4941 net.cpp:157] Top shape: 64 256 26 26 (11075584)
I1108 14:52:29.638777  4941 net.cpp:165] Memory required for data: 1030464256
I1108 14:52:29.638784  4941 layer_factory.hpp:77] Creating layer relu2
I1108 14:52:29.638792  4941 net.cpp:100] Creating Layer relu2
I1108 14:52:29.638794  4941 net.cpp:434] relu2 <- conv2
I1108 14:52:29.638798  4941 net.cpp:395] relu2 -> conv2 (in-place)
I1108 14:52:29.638912  4941 net.cpp:150] Setting up relu2
I1108 14:52:29.638923  4941 net.cpp:157] Top shape: 64 256 26 26 (11075584)
I1108 14:52:29.638926  4941 net.cpp:165] Memory required for data: 1074766592
I1108 14:52:29.638928  4941 layer_factory.hpp:77] Creating layer norm2
I1108 14:52:29.638936  4941 net.cpp:100] Creating Layer norm2
I1108 14:52:29.638939  4941 net.cpp:434] norm2 <- conv2
I1108 14:52:29.638942  4941 net.cpp:408] norm2 -> norm2
I1108 14:52:29.639134  4941 net.cpp:150] Setting up norm2
I1108 14:52:29.639144  4941 net.cpp:157] Top shape: 64 256 26 26 (11075584)
I1108 14:52:29.639147  4941 net.cpp:165] Memory required for data: 1119068928
I1108 14:52:29.639150  4941 layer_factory.hpp:77] Creating layer pool2
I1108 14:52:29.639155  4941 net.cpp:100] Creating Layer pool2
I1108 14:52:29.639158  4941 net.cpp:434] pool2 <- norm2
I1108 14:52:29.639161  4941 net.cpp:408] pool2 -> pool2
I1108 14:52:29.639189  4941 net.cpp:150] Setting up pool2
I1108 14:52:29.639195  4941 net.cpp:157] Top shape: 64 256 13 13 (2768896)
I1108 14:52:29.639197  4941 net.cpp:165] Memory required for data: 1130144512
I1108 14:52:29.639199  4941 layer_factory.hpp:77] Creating layer conv3
I1108 14:52:29.639207  4941 net.cpp:100] Creating Layer conv3
I1108 14:52:29.639209  4941 net.cpp:434] conv3 <- pool2
I1108 14:52:29.639214  4941 net.cpp:408] conv3 -> conv3
I1108 14:52:29.641362  4941 net.cpp:150] Setting up conv3
I1108 14:52:29.641384  4941 net.cpp:157] Top shape: 64 512 13 13 (5537792)
I1108 14:52:29.641388  4941 net.cpp:165] Memory required for data: 1152295680
I1108 14:52:29.641397  4941 layer_factory.hpp:77] Creating layer relu3
I1108 14:52:29.641407  4941 net.cpp:100] Creating Layer relu3
I1108 14:52:29.641409  4941 net.cpp:434] relu3 <- conv3
I1108 14:52:29.641415  4941 net.cpp:395] relu3 -> conv3 (in-place)
I1108 14:52:29.641523  4941 net.cpp:150] Setting up relu3
I1108 14:52:29.641530  4941 net.cpp:157] Top shape: 64 512 13 13 (5537792)
I1108 14:52:29.641532  4941 net.cpp:165] Memory required for data: 1174446848
I1108 14:52:29.641535  4941 layer_factory.hpp:77] Creating layer conv4
I1108 14:52:29.641542  4941 net.cpp:100] Creating Layer conv4
I1108 14:52:29.641546  4941 net.cpp:434] conv4 <- conv3
I1108 14:52:29.641549  4941 net.cpp:408] conv4 -> conv4
I1108 14:52:29.645601  4941 net.cpp:150] Setting up conv4
I1108 14:52:29.645622  4941 net.cpp:157] Top shape: 64 512 13 13 (5537792)
I1108 14:52:29.645625  4941 net.cpp:165] Memory required for data: 1196598016
I1108 14:52:29.645632  4941 layer_factory.hpp:77] Creating layer relu4
I1108 14:52:29.645640  4941 net.cpp:100] Creating Layer relu4
I1108 14:52:29.645643  4941 net.cpp:434] relu4 <- conv4
I1108 14:52:29.645648  4941 net.cpp:395] relu4 -> conv4 (in-place)
I1108 14:52:29.645756  4941 net.cpp:150] Setting up relu4
I1108 14:52:29.645763  4941 net.cpp:157] Top shape: 64 512 13 13 (5537792)
I1108 14:52:29.645766  4941 net.cpp:165] Memory required for data: 1218749184
I1108 14:52:29.645768  4941 layer_factory.hpp:77] Creating layer conv5
I1108 14:52:29.645776  4941 net.cpp:100] Creating Layer conv5
I1108 14:52:29.645778  4941 net.cpp:434] conv5 <- conv4
I1108 14:52:29.645782  4941 net.cpp:408] conv5 -> conv5
I1108 14:52:29.649828  4941 net.cpp:150] Setting up conv5
I1108 14:52:29.649852  4941 net.cpp:157] Top shape: 64 512 13 13 (5537792)
I1108 14:52:29.649854  4941 net.cpp:165] Memory required for data: 1240900352
I1108 14:52:29.649864  4941 layer_factory.hpp:77] Creating layer relu5
I1108 14:52:29.649873  4941 net.cpp:100] Creating Layer relu5
I1108 14:52:29.649878  4941 net.cpp:434] relu5 <- conv5
I1108 14:52:29.649899  4941 net.cpp:395] relu5 -> conv5 (in-place)
I1108 14:52:29.650079  4941 net.cpp:150] Setting up relu5
I1108 14:52:29.650087  4941 net.cpp:157] Top shape: 64 512 13 13 (5537792)
I1108 14:52:29.650090  4941 net.cpp:165] Memory required for data: 1263051520
I1108 14:52:29.650094  4941 layer_factory.hpp:77] Creating layer pool5
I1108 14:52:29.650101  4941 net.cpp:100] Creating Layer pool5
I1108 14:52:29.650104  4941 net.cpp:434] pool5 <- conv5
I1108 14:52:29.650108  4941 net.cpp:408] pool5 -> pool5
I1108 14:52:29.650141  4941 net.cpp:150] Setting up pool5
I1108 14:52:29.650147  4941 net.cpp:157] Top shape: 64 512 6 6 (1179648)
I1108 14:52:29.650149  4941 net.cpp:165] Memory required for data: 1267770112
I1108 14:52:29.650151  4941 layer_factory.hpp:77] Creating layer fc6
I1108 14:52:29.650156  4941 net.cpp:100] Creating Layer fc6
I1108 14:52:29.650158  4941 net.cpp:434] fc6 <- pool5
I1108 14:52:29.650163  4941 net.cpp:408] fc6 -> fc6
I1108 14:52:29.704557  4955 blocking_queue.cpp:50] Waiting for data
I1108 14:52:29.747768  4941 net.cpp:150] Setting up fc6
I1108 14:52:29.747791  4941 net.cpp:157] Top shape: 64 4096 (262144)
I1108 14:52:29.747794  4941 net.cpp:165] Memory required for data: 1268818688
I1108 14:52:29.747802  4941 layer_factory.hpp:77] Creating layer relu6
I1108 14:52:29.747810  4941 net.cpp:100] Creating Layer relu6
I1108 14:52:29.747814  4941 net.cpp:434] relu6 <- fc6
I1108 14:52:29.747819  4941 net.cpp:395] relu6 -> fc6 (in-place)
I1108 14:52:29.748092  4941 net.cpp:150] Setting up relu6
I1108 14:52:29.748100  4941 net.cpp:157] Top shape: 64 4096 (262144)
I1108 14:52:29.748103  4941 net.cpp:165] Memory required for data: 1269867264
I1108 14:52:29.748106  4941 layer_factory.hpp:77] Creating layer drop6
I1108 14:52:29.748112  4941 net.cpp:100] Creating Layer drop6
I1108 14:52:29.748116  4941 net.cpp:434] drop6 <- fc6
I1108 14:52:29.748121  4941 net.cpp:395] drop6 -> fc6 (in-place)
I1108 14:52:29.748138  4941 net.cpp:150] Setting up drop6
I1108 14:52:29.748142  4941 net.cpp:157] Top shape: 64 4096 (262144)
I1108 14:52:29.748144  4941 net.cpp:165] Memory required for data: 1270915840
I1108 14:52:29.748147  4941 layer_factory.hpp:77] Creating layer fc7
I1108 14:52:29.748153  4941 net.cpp:100] Creating Layer fc7
I1108 14:52:29.748162  4941 net.cpp:434] fc7 <- fc6
I1108 14:52:29.748165  4941 net.cpp:408] fc7 -> fc7
I1108 14:52:29.758899  4941 net.cpp:150] Setting up fc7
I1108 14:52:29.758921  4941 net.cpp:157] Top shape: 64 2048 (131072)
I1108 14:52:29.758924  4941 net.cpp:165] Memory required for data: 1271440128
I1108 14:52:29.758931  4941 layer_factory.hpp:77] Creating layer relu7
I1108 14:52:29.758939  4941 net.cpp:100] Creating Layer relu7
I1108 14:52:29.758944  4941 net.cpp:434] relu7 <- fc7
I1108 14:52:29.758949  4941 net.cpp:395] relu7 -> fc7 (in-place)
I1108 14:52:29.759227  4941 net.cpp:150] Setting up relu7
I1108 14:52:29.759237  4941 net.cpp:157] Top shape: 64 2048 (131072)
I1108 14:52:29.759239  4941 net.cpp:165] Memory required for data: 1271964416
I1108 14:52:29.759243  4941 layer_factory.hpp:77] Creating layer drop7
I1108 14:52:29.759248  4941 net.cpp:100] Creating Layer drop7
I1108 14:52:29.759251  4941 net.cpp:434] drop7 <- fc7
I1108 14:52:29.759255  4941 net.cpp:395] drop7 -> fc7 (in-place)
I1108 14:52:29.759274  4941 net.cpp:150] Setting up drop7
I1108 14:52:29.759277  4941 net.cpp:157] Top shape: 64 2048 (131072)
I1108 14:52:29.759279  4941 net.cpp:165] Memory required for data: 1272488704
I1108 14:52:29.759282  4941 layer_factory.hpp:77] Creating layer fc8_hmdb
I1108 14:52:29.759287  4941 net.cpp:100] Creating Layer fc8_hmdb
I1108 14:52:29.759290  4941 net.cpp:434] fc8_hmdb <- fc7
I1108 14:52:29.759294  4941 net.cpp:408] fc8_hmdb -> fc8
I1108 14:52:29.759433  4941 net.cpp:150] Setting up fc8_hmdb
I1108 14:52:29.759439  4941 net.cpp:157] Top shape: 64 51 (3264)
I1108 14:52:29.759443  4941 net.cpp:165] Memory required for data: 1272501760
I1108 14:52:29.759446  4941 layer_factory.hpp:77] Creating layer fc8_fc8_hmdb_0_split
I1108 14:52:29.759451  4941 net.cpp:100] Creating Layer fc8_fc8_hmdb_0_split
I1108 14:52:29.759464  4941 net.cpp:434] fc8_fc8_hmdb_0_split <- fc8
I1108 14:52:29.759467  4941 net.cpp:408] fc8_fc8_hmdb_0_split -> fc8_fc8_hmdb_0_split_0
I1108 14:52:29.759472  4941 net.cpp:408] fc8_fc8_hmdb_0_split -> fc8_fc8_hmdb_0_split_1
I1108 14:52:29.759496  4941 net.cpp:150] Setting up fc8_fc8_hmdb_0_split
I1108 14:52:29.759500  4941 net.cpp:157] Top shape: 64 51 (3264)
I1108 14:52:29.759503  4941 net.cpp:157] Top shape: 64 51 (3264)
I1108 14:52:29.759505  4941 net.cpp:165] Memory required for data: 1272527872
I1108 14:52:29.759508  4941 layer_factory.hpp:77] Creating layer loss
I1108 14:52:29.759512  4941 net.cpp:100] Creating Layer loss
I1108 14:52:29.759516  4941 net.cpp:434] loss <- fc8_fc8_hmdb_0_split_0
I1108 14:52:29.759518  4941 net.cpp:434] loss <- label_test_data_1_split_0
I1108 14:52:29.759522  4941 net.cpp:408] loss -> loss
…
