…
I1107 15:06:02.690657  3455 net.cpp:322] The NetState phase (0) differed from the phase (1) specified by a rule in layer accuracy
I1107 15:06:02.690778  3455 net.cpp:58] Initializing net from parameters: 
name: "VGG_CNN_M_2048"
state {
  phase: TRAIN
  level: 0
  stage: ""
}
layer {
  name: "train_data"
  type: "Data"
  top: "data"
  top: "label"
  include {
    phase: TRAIN
  }
  transform_param {
    scale: 0.00390625
  }
  data_param {
    source: "/home/hadoop/whx/dataset/hmdb/jpg_output/hmdb51_train_lmdb/split1"
    batch_size: 64
    backend: LMDB
  }
}
layer {
  name: "conv1"
  type: "Convolution"
  bottom: "data"
  top: "conv1"
  convolution_param {
    num_output: 96
    kernel_size: 7
    stride: 2
  }
}
layer {
  name: "relu1"
  type: "ReLU"
  bottom: "conv1"
  top: "conv1"
}
layer {
  name: "norm1"
  type: "LRN"
  bottom: "conv1"
  top: "norm1"
  lrn_param {
    local_size: 5
    alpha: 0.0005
    beta: 0.75
    k: 2
  }
}
layer {
  name: "pool1"
  type: "Pooling"
  bottom: "norm1"
  top: "pool1"
  pooling_param {
    pool: MAX
    kernel_size: 3
    stride: 2
  }
}
layer {
  name: "conv2"
  type: "Convolution"
  bottom: "pool1"
  top: "conv2"
  convolution_param {
    num_output: 256
    pad: 1
    kernel_size: 5
    stride: 2
  }
}
layer {
  name: "relu2"
  type: "ReLU"
  bottom: "conv2"
  top: "conv2"
}
layer {
  name: "norm2"
  type: "LRN"
  bottom: "conv2"
  top: "norm2"
  lrn_param {
    local_size: 5
    alpha: 0.0005
    beta: 0.75
    k: 2
  }
}
layer {
  name: "pool2"
  type: "Pooling"
  bottom: "norm2"
  top: "pool2"
  pooling_param {
    pool: MAX
    kernel_size: 3
    stride: 2
  }
}
layer {
  name: "conv3"
  type: "Convolution"
  bottom: "pool2"
  top: "conv3"
  convolution_param {
    num_output: 512
    pad: 1
    kernel_size: 3
  }
}
layer {
  name: "relu3"
  type: "ReLU"
  bottom: "conv3"
  top: "conv3"
}
layer {
  name: "conv4"
  type: "Convolution"
  bottom: "conv3"
  top: "conv4"
  convolution_param {
    num_output: 512
    pad: 1
    kernel_size: 3
  }
}
layer {
  name: "relu4"
  type: "ReLU"
  bottom: "conv4"
  top: "conv4"
}
layer {
  name: "conv5"
  type: "Convolution"
  bottom: "conv4"
  top: "conv5"
  convolution_param {
    num_output: 512
    pad: 1
    kernel_size: 3
  }
}
layer {
  name: "relu5"
  type: "ReLU"
  bottom: "conv5"
  top: "conv5"
}
layer {
  name: "pool5"
  type: "Pooling"
  bottom: "conv5"
  top: "pool5"
  pooling_param {
    pool: MAX
    kernel_size: 3
    stride: 2
  }
}
layer {
  name: "fc6"
  type: "InnerProduct"
  bottom: "pool5"
  top: "fc6"
  inner_product_param {
    num_output: 4096
  }
}
layer {
  name: "relu6"
  type: "ReLU"
  bottom: "fc6"
  top: "fc6"
}
layer {
  name: "drop6"
  type: "Dropout"
  bottom: "fc6"
  top: "fc6"
  dropout_param {
    dropout_ratio: 0.5
  }
}
layer {
  name: "fc7"
  type: "InnerProduct"
  bottom: "fc6"
  top: "fc7"
  inner_product_param {
    num_output: 2048
  }
}
layer {
  name: "relu7"
  type: "ReLU"
  bottom: "fc7"
  top: "fc7"
}
layer {
  name: "drop7"
  type: "Dropout"
  bottom: "fc7"
  top: "fc7"
  dropout_param {
    dropout_ratio: 0.5
  }
}
layer {
  name: "fc8_hmdb"
  type: "InnerProduct"
  bottom: "fc7"
  top: "fc8"
  param {
    lr_mult: 100
  }
  param {
    lr_mult: 100
  }
  inner_product_param {
    num_output: 51
  }
}
layer {
  name: "loss"
  type: "SoftmaxWithLoss"
  bottom: "fc8"
  bottom: "label"
  top: "loss"
}
I1107 15:06:02.690855  3455 layer_factory.hpp:77] Creating layer train_data
I1107 15:06:02.691217  3455 net.cpp:100] Creating Layer train_data
I1107 15:06:02.691226  3455 net.cpp:408] train_data -> data
I1107 15:06:02.691243  3455 net.cpp:408] train_data -> label
I1107 15:06:02.691769  3466 db_lmdb.cpp:35] Opened lmdb /home/hadoop/whx/dataset/hmdb/jpg_output/hmdb51_train_lmdb/split1
I1107 15:06:02.697697  3455 data_layer.cpp:41] output data size: 64,3,224,224
I1107 15:06:02.736455  3455 net.cpp:150] Setting up train_data
I1107 15:06:02.736484  3455 net.cpp:157] Top shape: 64 3 224 224 (9633792)
I1107 15:06:02.736487  3455 net.cpp:157] Top shape: 64 (64)
I1107 15:06:02.736491  3455 net.cpp:165] Memory required for data: 38535424
I1107 15:06:02.736497  3455 layer_factory.hpp:77] Creating layer conv1
I1107 15:06:02.736511  3455 net.cpp:100] Creating Layer conv1
I1107 15:06:02.736515  3455 net.cpp:434] conv1 <- data
I1107 15:06:02.736523  3455 net.cpp:408] conv1 -> conv1
I1107 15:06:02.859102  3455 net.cpp:150] Setting up conv1
I1107 15:06:02.859128  3455 net.cpp:157] Top shape: 64 96 109 109 (72996864)
I1107 15:06:02.859133  3455 net.cpp:165] Memory required for data: 330522880
I1107 15:06:02.859144  3455 layer_factory.hpp:77] Creating layer relu1
I1107 15:06:02.859154  3455 net.cpp:100] Creating Layer relu1
I1107 15:06:02.859158  3455 net.cpp:434] relu1 <- conv1
I1107 15:06:02.859163  3455 net.cpp:395] relu1 -> conv1 (in-place)
I1107 15:06:02.859326  3455 net.cpp:150] Setting up relu1
I1107 15:06:02.859335  3455 net.cpp:157] Top shape: 64 96 109 109 (72996864)
I1107 15:06:02.859338  3455 net.cpp:165] Memory required for data: 622510336
I1107 15:06:02.859341  3455 layer_factory.hpp:77] Creating layer norm1
I1107 15:06:02.859349  3455 net.cpp:100] Creating Layer norm1
I1107 15:06:02.859351  3455 net.cpp:434] norm1 <- conv1
I1107 15:06:02.859355  3455 net.cpp:408] norm1 -> norm1
I1107 15:06:02.859534  3455 net.cpp:150] Setting up norm1
I1107 15:06:02.859542  3455 net.cpp:157] Top shape: 64 96 109 109 (72996864)
I1107 15:06:02.859545  3455 net.cpp:165] Memory required for data: 914497792
I1107 15:06:02.859547  3455 layer_factory.hpp:77] Creating layer pool1
I1107 15:06:02.859553  3455 net.cpp:100] Creating Layer pool1
I1107 15:06:02.859556  3455 net.cpp:434] pool1 <- norm1
I1107 15:06:02.859560  3455 net.cpp:408] pool1 -> pool1
I1107 15:06:02.859586  3455 net.cpp:150] Setting up pool1
I1107 15:06:02.859591  3455 net.cpp:157] Top shape: 64 96 54 54 (17915904)
I1107 15:06:02.859593  3455 net.cpp:165] Memory required for data: 986161408
I1107 15:06:02.859596  3455 layer_factory.hpp:77] Creating layer conv2
I1107 15:06:02.859603  3455 net.cpp:100] Creating Layer conv2
I1107 15:06:02.859606  3455 net.cpp:434] conv2 <- pool1
I1107 15:06:02.859609  3455 net.cpp:408] conv2 -> conv2
I1107 15:06:02.861001  3455 net.cpp:150] Setting up conv2
I1107 15:06:02.861011  3455 net.cpp:157] Top shape: 64 256 26 26 (11075584)
I1107 15:06:02.861014  3455 net.cpp:165] Memory required for data: 1030463744
I1107 15:06:02.861021  3455 layer_factory.hpp:77] Creating layer relu2
I1107 15:06:02.861027  3455 net.cpp:100] Creating Layer relu2
I1107 15:06:02.861029  3455 net.cpp:434] relu2 <- conv2
I1107 15:06:02.861032  3455 net.cpp:395] relu2 -> conv2 (in-place)
I1107 15:06:02.861203  3455 net.cpp:150] Setting up relu2
I1107 15:06:02.861212  3455 net.cpp:157] Top shape: 64 256 26 26 (11075584)
I1107 15:06:02.861214  3455 net.cpp:165] Memory required for data: 1074766080
I1107 15:06:02.861217  3455 layer_factory.hpp:77] Creating layer norm2
I1107 15:06:02.861222  3455 net.cpp:100] Creating Layer norm2
I1107 15:06:02.861225  3455 net.cpp:434] norm2 <- conv2
I1107 15:06:02.861229  3455 net.cpp:408] norm2 -> norm2
I1107 15:06:02.861340  3455 net.cpp:150] Setting up norm2
I1107 15:06:02.861346  3455 net.cpp:157] Top shape: 64 256 26 26 (11075584)
I1107 15:06:02.861348  3455 net.cpp:165] Memory required for data: 1119068416
I1107 15:06:02.861351  3455 layer_factory.hpp:77] Creating layer pool2
I1107 15:06:02.861356  3455 net.cpp:100] Creating Layer pool2
I1107 15:06:02.861371  3455 net.cpp:434] pool2 <- norm2
I1107 15:06:02.861376  3455 net.cpp:408] pool2 -> pool2
I1107 15:06:02.861397  3455 net.cpp:150] Setting up pool2
I1107 15:06:02.861402  3455 net.cpp:157] Top shape: 64 256 13 13 (2768896)
I1107 15:06:02.861404  3455 net.cpp:165] Memory required for data: 1130144000
I1107 15:06:02.861407  3455 layer_factory.hpp:77] Creating layer conv3
I1107 15:06:02.861413  3455 net.cpp:100] Creating Layer conv3
I1107 15:06:02.861415  3455 net.cpp:434] conv3 <- pool2
I1107 15:06:02.861418  3455 net.cpp:408] conv3 -> conv3
I1107 15:06:02.863232  3455 net.cpp:150] Setting up conv3
I1107 15:06:02.863246  3455 net.cpp:157] Top shape: 64 512 13 13 (5537792)
I1107 15:06:02.863250  3455 net.cpp:165] Memory required for data: 1152295168
I1107 15:06:02.863256  3455 layer_factory.hpp:77] Creating layer relu3
I1107 15:06:02.863262  3455 net.cpp:100] Creating Layer relu3
I1107 15:06:02.863265  3455 net.cpp:434] relu3 <- conv3
I1107 15:06:02.863270  3455 net.cpp:395] relu3 -> conv3 (in-place)
I1107 15:06:02.863435  3455 net.cpp:150] Setting up relu3
I1107 15:06:02.863445  3455 net.cpp:157] Top shape: 64 512 13 13 (5537792)
I1107 15:06:02.863446  3455 net.cpp:165] Memory required for data: 1174446336
I1107 15:06:02.863450  3455 layer_factory.hpp:77] Creating layer conv4
I1107 15:06:02.863456  3455 net.cpp:100] Creating Layer conv4
I1107 15:06:02.863458  3455 net.cpp:434] conv4 <- conv3
I1107 15:06:02.863462  3455 net.cpp:408] conv4 -> conv4
I1107 15:06:02.867007  3455 net.cpp:150] Setting up conv4
I1107 15:06:02.867035  3455 net.cpp:157] Top shape: 64 512 13 13 (5537792)
I1107 15:06:02.867038  3455 net.cpp:165] Memory required for data: 1196597504
I1107 15:06:02.867045  3455 layer_factory.hpp:77] Creating layer relu4
I1107 15:06:02.867053  3455 net.cpp:100] Creating Layer relu4
I1107 15:06:02.867058  3455 net.cpp:434] relu4 <- conv4
I1107 15:06:02.867063  3455 net.cpp:395] relu4 -> conv4 (in-place)
I1107 15:06:02.867172  3455 net.cpp:150] Setting up relu4
I1107 15:06:02.867179  3455 net.cpp:157] Top shape: 64 512 13 13 (5537792)
I1107 15:06:02.867182  3455 net.cpp:165] Memory required for data: 1218748672
I1107 15:06:02.867184  3455 layer_factory.hpp:77] Creating layer conv5
I1107 15:06:02.867190  3455 net.cpp:100] Creating Layer conv5
I1107 15:06:02.867193  3455 net.cpp:434] conv5 <- conv4
I1107 15:06:02.867198  3455 net.cpp:408] conv5 -> conv5
I1107 15:06:02.870698  3455 net.cpp:150] Setting up conv5
I1107 15:06:02.870726  3455 net.cpp:157] Top shape: 64 512 13 13 (5537792)
I1107 15:06:02.870729  3455 net.cpp:165] Memory required for data: 1240899840
I1107 15:06:02.870739  3455 layer_factory.hpp:77] Creating layer relu5
I1107 15:06:02.870748  3455 net.cpp:100] Creating Layer relu5
I1107 15:06:02.870751  3455 net.cpp:434] relu5 <- conv5
I1107 15:06:02.870757  3455 net.cpp:395] relu5 -> conv5 (in-place)
I1107 15:06:02.870867  3455 net.cpp:150] Setting up relu5
I1107 15:06:02.870873  3455 net.cpp:157] Top shape: 64 512 13 13 (5537792)
I1107 15:06:02.870877  3455 net.cpp:165] Memory required for data: 1263051008
I1107 15:06:02.870878  3455 layer_factory.hpp:77] Creating layer pool5
I1107 15:06:02.870884  3455 net.cpp:100] Creating Layer pool5
I1107 15:06:02.870887  3455 net.cpp:434] pool5 <- conv5
I1107 15:06:02.870892  3455 net.cpp:408] pool5 -> pool5
I1107 15:06:02.870919  3455 net.cpp:150] Setting up pool5
I1107 15:06:02.870924  3455 net.cpp:157] Top shape: 64 512 6 6 (1179648)
I1107 15:06:02.870928  3455 net.cpp:165] Memory required for data: 1267769600
I1107 15:06:02.870929  3455 layer_factory.hpp:77] Creating layer fc6
I1107 15:06:02.870935  3455 net.cpp:100] Creating Layer fc6
I1107 15:06:02.870939  3455 net.cpp:434] fc6 <- pool5
I1107 15:06:02.870944  3455 net.cpp:408] fc6 -> fc6
I1107 15:06:02.962960  3455 net.cpp:150] Setting up fc6
I1107 15:06:02.962990  3455 net.cpp:157] Top shape: 64 4096 (262144)
I1107 15:06:02.962992  3455 net.cpp:165] Memory required for data: 1268818176
I1107 15:06:02.962999  3455 layer_factory.hpp:77] Creating layer relu6
I1107 15:06:02.963008  3455 net.cpp:100] Creating Layer relu6
I1107 15:06:02.963027  3455 net.cpp:434] relu6 <- fc6
I1107 15:06:02.963032  3455 net.cpp:395] relu6 -> fc6 (in-place)
I1107 15:06:02.963258  3455 net.cpp:150] Setting up relu6
I1107 15:06:02.963268  3455 net.cpp:157] Top shape: 64 4096 (262144)
I1107 15:06:02.963270  3455 net.cpp:165] Memory required for data: 1269866752
I1107 15:06:02.963274  3455 layer_factory.hpp:77] Creating layer drop6
I1107 15:06:02.963279  3455 net.cpp:100] Creating Layer drop6
I1107 15:06:02.963281  3455 net.cpp:434] drop6 <- fc6
I1107 15:06:02.963285  3455 net.cpp:395] drop6 -> fc6 (in-place)
I1107 15:06:02.963306  3455 net.cpp:150] Setting up drop6
I1107 15:06:02.963311  3455 net.cpp:157] Top shape: 64 4096 (262144)
I1107 15:06:02.963313  3455 net.cpp:165] Memory required for data: 1270915328
I1107 15:06:02.963316  3455 layer_factory.hpp:77] Creating layer fc7
I1107 15:06:02.963321  3455 net.cpp:100] Creating Layer fc7
I1107 15:06:02.963325  3455 net.cpp:434] fc7 <- fc6
I1107 15:06:02.963327  3455 net.cpp:408] fc7 -> fc7
I1107 15:06:02.973713  3455 net.cpp:150] Setting up fc7
I1107 15:06:02.973742  3455 net.cpp:157] Top shape: 64 2048 (131072)
I1107 15:06:02.973744  3455 net.cpp:165] Memory required for data: 1271439616
I1107 15:06:02.973752  3455 layer_factory.hpp:77] Creating layer relu7
I1107 15:06:02.973762  3455 net.cpp:100] Creating Layer relu7
I1107 15:06:02.973765  3455 net.cpp:434] relu7 <- fc7
I1107 15:06:02.973770  3455 net.cpp:395] relu7 -> fc7 (in-place)
I1107 15:06:02.974033  3455 net.cpp:150] Setting up relu7
I1107 15:06:02.974042  3455 net.cpp:157] Top shape: 64 2048 (131072)
I1107 15:06:02.974045  3455 net.cpp:165] Memory required for data: 1271963904
I1107 15:06:02.974047  3455 layer_factory.hpp:77] Creating layer drop7
I1107 15:06:02.974053  3455 net.cpp:100] Creating Layer drop7
I1107 15:06:02.974056  3455 net.cpp:434] drop7 <- fc7
I1107 15:06:02.974059  3455 net.cpp:395] drop7 -> fc7 (in-place)
I1107 15:06:02.974079  3455 net.cpp:150] Setting up drop7
I1107 15:06:02.974084  3455 net.cpp:157] Top shape: 64 2048 (131072)
I1107 15:06:02.974087  3455 net.cpp:165] Memory required for data: 1272488192
I1107 15:06:02.974089  3455 layer_factory.hpp:77] Creating layer fc8_hmdb
I1107 15:06:02.974094  3455 net.cpp:100] Creating Layer fc8_hmdb
I1107 15:06:02.974097  3455 net.cpp:434] fc8_hmdb <- fc7
I1107 15:06:02.974102  3455 net.cpp:408] fc8_hmdb -> fc8
I1107 15:06:02.974449  3455 net.cpp:150] Setting up fc8_hmdb
I1107 15:06:02.974458  3455 net.cpp:157] Top shape: 64 51 (3264)
I1107 15:06:02.974462  3455 net.cpp:165] Memory required for data: 1272501248
I1107 15:06:02.974465  3455 layer_factory.hpp:77] Creating layer loss
I1107 15:06:02.974470  3455 net.cpp:100] Creating Layer loss
I1107 15:06:02.974473  3455 net.cpp:434] loss <- fc8
I1107 15:06:02.974476  3455 net.cpp:434] loss <- label
I1107 15:06:02.974481  3455 net.cpp:408] loss -> loss
I1107 15:06:02.974491  3455 layer_factory.hpp:77] Creating layer loss
…
I1107 15:06:02.975167  3455 solver.cpp:181] Creating test net (#0) specified by net file: mywork/hmdb51/vgg_m_2048_net.prototxt
I1107 15:06:02.975199  3455 net.cpp:322] The NetState phase (1) differed from the phase (0) specified by a rule in layer train_data
I1107 15:06:02.975332  3455 net.cpp:58] Initializing net from parameters: 
name: "VGG_CNN_M_2048"
state {
  phase: TEST
}
layer {
  name: "test_data"
  type: "Data"
  top: "data"
  top: "label"
  include {
    phase: TEST
  }
  transform_param {
    scale: 0.00390625
  }
  data_param {
    source: "/home/hadoop/whx/dataset/hmdb/jpg_output/hmdb51_val_lmdb/split1"
    batch_size: 64
    backend: LMDB
  }
}
layer {
  name: "conv1"
  type: "Convolution"
  bottom: "data"
  top: "conv1"
  convolution_param {
    num_output: 96
    kernel_size: 7
    stride: 2
  }
}
layer {
  name: "relu1"
  type: "ReLU"
  bottom: "conv1"
  top: "conv1"
}
layer {
  name: "norm1"
  type: "LRN"
  bottom: "conv1"
  top: "norm1"
  lrn_param {
    local_size: 5
    alpha: 0.0005
    beta: 0.75
    k: 2
  }
}
layer {
  name: "pool1"
  type: "Pooling"
  bottom: "norm1"
  top: "pool1"
  pooling_param {
    pool: MAX
    kernel_size: 3
    stride: 2
  }
}
layer {
  name: "conv2"
  type: "Convolution"
  bottom: "pool1"
  top: "conv2"
  convolution_param {
    num_output: 256
    pad: 1
    kernel_size: 5
    stride: 2
  }
}
layer {
  name: "relu2"
  type: "ReLU"
  bottom: "conv2"
  top: "conv2"
}
layer {
  name: "norm2"
  type: "LRN"
  bottom: "conv2"
  top: "norm2"
  lrn_param {
    local_size: 5
    alpha: 0.0005
    beta: 0.75
    k: 2
  }
}
layer {
  name: "pool2"
  type: "Pooling"
  bottom: "norm2"
  top: "pool2"
  pooling_param {
    pool: MAX
    kernel_size: 3
    stride: 2
  }
}
layer {
  name: "conv3"
  type: "Convolution"
  bottom: "pool2"
  top: "conv3"
  convolution_param {
    num_output: 512
    pad: 1
    kernel_size: 3
  }
}
layer {
  name: "relu3"
  type: "ReLU"
  bottom: "conv3"
  top: "conv3"
}
layer {
  name: "conv4"
  type: "Convolution"
  bottom: "conv3"
  top: "conv4"
  convolution_param {
    num_output: 512
    pad: 1
    kernel_size: 3
  }
}
layer {
  name: "relu4"
  type: "ReLU"
  bottom: "conv4"
  top: "conv4"
}
layer {
  name: "conv5"
  type: "Convolution"
  bottom: "conv4"
  top: "conv5"
  convolution_param {
    num_output: 512
    pad: 1
    kernel_size: 3
  }
}
layer {
  name: "relu5"
  type: "ReLU"
  bottom: "conv5"
  top: "conv5"
}
layer {
  name: "pool5"
  type: "Pooling"
  bottom: "conv5"
  top: "pool5"
  pooling_param {
    pool: MAX
    kernel_size: 3
    stride: 2
  }
}
layer {
  name: "fc6"
  type: "InnerProduct"
  bottom: "pool5"
  top: "fc6"
  inner_product_param {
    num_output: 4096
  }
}
layer {
  name: "relu6"
  type: "ReLU"
  bottom: "fc6"
  top: "fc6"
}
layer {
  name: "drop6"
  type: "Dropout"
  bottom: "fc6"
  top: "fc6"
  dropout_param {
    dropout_ratio: 0.5
  }
}
layer {
  name: "fc7"
  type: "InnerProduct"
  bottom: "fc6"
  top: "fc7"
  inner_product_param {
    num_output: 2048
  }
}
layer {
  name: "relu7"
  type: "ReLU"
  bottom: "fc7"
  top: "fc7"
}
layer {
  name: "drop7"
  type: "Dropout"
  bottom: "fc7"
  top: "fc7"
  dropout_param {
    dropout_ratio: 0.5
  }
}
layer {
  name: "fc8_hmdb"
  type: "InnerProduct"
  bottom: "fc7"
  top: "fc8"
  param {
    lr_mult: 100
  }
  param {
    lr_mult: 100
  }
  inner_product_param {
    num_output: 51
  }
}
layer {
  name: "loss"
  type: "SoftmaxWithLoss"
  bottom: "fc8"
  bottom: "label"
  top: "loss"
}
layer {
  name: "accuracy"
  type: "Accuracy"
  bottom: "fc8"
  bottom: "label"
  top: "accuracy"
  include {
    phase: TEST
  }
}
I1107 15:06:02.975411  3455 layer_factory.hpp:77] Creating layer test_data
I1107 15:06:02.975473  3455 net.cpp:100] Creating Layer test_data
I1107 15:06:02.975479  3455 net.cpp:408] test_data -> data
I1107 15:06:02.975486  3455 net.cpp:408] test_data -> label
I1107 15:06:02.976017  3468 db_lmdb.cpp:35] Opened lmdb /home/hadoop/whx/dataset/hmdb/jpg_output/hmdb51_val_lmdb/split1
I1107 15:06:02.976183  3455 data_layer.cpp:41] output data size: 64,3,224,224
I1107 15:06:03.015192  3455 net.cpp:150] Setting up test_data
I1107 15:06:03.015216  3455 net.cpp:157] Top shape: 64 3 224 224 (9633792)
I1107 15:06:03.015223  3455 net.cpp:157] Top shape: 64 (64)
I1107 15:06:03.015225  3455 net.cpp:165] Memory required for data: 38535424
I1107 15:06:03.015230  3455 layer_factory.hpp:77] Creating layer label_test_data_1_split
I1107 15:06:03.015240  3455 net.cpp:100] Creating Layer label_test_data_1_split
I1107 15:06:03.015244  3455 net.cpp:434] label_test_data_1_split <- label
I1107 15:06:03.015249  3455 net.cpp:408] label_test_data_1_split -> label_test_data_1_split_0
I1107 15:06:03.015256  3455 net.cpp:408] label_test_data_1_split -> label_test_data_1_split_1
I1107 15:06:03.015326  3455 net.cpp:150] Setting up label_test_data_1_split
I1107 15:06:03.015333  3455 net.cpp:157] Top shape: 64 (64)
I1107 15:06:03.015336  3455 net.cpp:157] Top shape: 64 (64)
I1107 15:06:03.015338  3455 net.cpp:165] Memory required for data: 38535936
I1107 15:06:03.015341  3455 layer_factory.hpp:77] Creating layer conv1
I1107 15:06:03.015349  3455 net.cpp:100] Creating Layer conv1
I1107 15:06:03.015352  3455 net.cpp:434] conv1 <- data
I1107 15:06:03.015357  3455 net.cpp:408] conv1 -> conv1
I1107 15:06:03.019749  3455 net.cpp:150] Setting up conv1
I1107 15:06:03.019759  3455 net.cpp:157] Top shape: 64 96 109 109 (72996864)
I1107 15:06:03.019763  3455 net.cpp:165] Memory required for data: 330523392
I1107 15:06:03.019770  3455 layer_factory.hpp:77] Creating layer relu1
I1107 15:06:03.019776  3455 net.cpp:100] Creating Layer relu1
I1107 15:06:03.019779  3455 net.cpp:434] relu1 <- conv1
I1107 15:06:03.019783  3455 net.cpp:395] relu1 -> conv1 (in-place)
I1107 15:06:03.019893  3455 net.cpp:150] Setting up relu1
I1107 15:06:03.019901  3455 net.cpp:157] Top shape: 64 96 109 109 (72996864)
I1107 15:06:03.019904  3455 net.cpp:165] Memory required for data: 622510848
I1107 15:06:03.019906  3455 layer_factory.hpp:77] Creating layer norm1
I1107 15:06:03.019914  3455 net.cpp:100] Creating Layer norm1
I1107 15:06:03.019917  3455 net.cpp:434] norm1 <- conv1
I1107 15:06:03.019922  3455 net.cpp:408] norm1 -> norm1
I1107 15:06:03.020117  3455 net.cpp:150] Setting up norm1
I1107 15:06:03.020124  3455 net.cpp:157] Top shape: 64 96 109 109 (72996864)
I1107 15:06:03.020128  3455 net.cpp:165] Memory required for data: 914498304
I1107 15:06:03.020130  3455 layer_factory.hpp:77] Creating layer pool1
I1107 15:06:03.020136  3455 net.cpp:100] Creating Layer pool1
I1107 15:06:03.020139  3455 net.cpp:434] pool1 <- norm1
I1107 15:06:03.020143  3455 net.cpp:408] pool1 -> pool1
I1107 15:06:03.020169  3455 net.cpp:150] Setting up pool1
I1107 15:06:03.020175  3455 net.cpp:157] Top shape: 64 96 54 54 (17915904)
I1107 15:06:03.020179  3455 net.cpp:165] Memory required for data: 986161920
I1107 15:06:03.020180  3455 layer_factory.hpp:77] Creating layer conv2
I1107 15:06:03.020186  3455 net.cpp:100] Creating Layer conv2
I1107 15:06:03.020190  3455 net.cpp:434] conv2 <- pool1
I1107 15:06:03.020203  3455 net.cpp:408] conv2 -> conv2
I1107 15:06:03.021551  3455 net.cpp:150] Setting up conv2
I1107 15:06:03.021570  3455 net.cpp:157] Top shape: 64 256 26 26 (11075584)
I1107 15:06:03.021574  3455 net.cpp:165] Memory required for data: 1030464256
I1107 15:06:03.021581  3455 layer_factory.hpp:77] Creating layer relu2
I1107 15:06:03.021589  3455 net.cpp:100] Creating Layer relu2
I1107 15:06:03.021592  3455 net.cpp:434] relu2 <- conv2
I1107 15:06:03.021596  3455 net.cpp:395] relu2 -> conv2 (in-place)
I1107 15:06:03.021715  3455 net.cpp:150] Setting up relu2
I1107 15:06:03.021723  3455 net.cpp:157] Top shape: 64 256 26 26 (11075584)
I1107 15:06:03.021725  3455 net.cpp:165] Memory required for data: 1074766592
I1107 15:06:03.021728  3455 layer_factory.hpp:77] Creating layer norm2
I1107 15:06:03.021736  3455 net.cpp:100] Creating Layer norm2
I1107 15:06:03.021739  3455 net.cpp:434] norm2 <- conv2
I1107 15:06:03.021744  3455 net.cpp:408] norm2 -> norm2
I1107 15:06:03.021939  3455 net.cpp:150] Setting up norm2
I1107 15:06:03.021950  3455 net.cpp:157] Top shape: 64 256 26 26 (11075584)
I1107 15:06:03.021953  3455 net.cpp:165] Memory required for data: 1119068928
I1107 15:06:03.021955  3455 layer_factory.hpp:77] Creating layer pool2
I1107 15:06:03.021960  3455 net.cpp:100] Creating Layer pool2
I1107 15:06:03.021963  3455 net.cpp:434] pool2 <- norm2
I1107 15:06:03.021967  3455 net.cpp:408] pool2 -> pool2
I1107 15:06:03.021992  3455 net.cpp:150] Setting up pool2
I1107 15:06:03.021997  3455 net.cpp:157] Top shape: 64 256 13 13 (2768896)
I1107 15:06:03.022001  3455 net.cpp:165] Memory required for data: 1130144512
I1107 15:06:03.022002  3455 layer_factory.hpp:77] Creating layer conv3
I1107 15:06:03.022011  3455 net.cpp:100] Creating Layer conv3
I1107 15:06:03.022013  3455 net.cpp:434] conv3 <- pool2
I1107 15:06:03.022017  3455 net.cpp:408] conv3 -> conv3
I1107 15:06:03.024111  3455 net.cpp:150] Setting up conv3
I1107 15:06:03.024132  3455 net.cpp:157] Top shape: 64 512 13 13 (5537792)
I1107 15:06:03.024137  3455 net.cpp:165] Memory required for data: 1152295680
I1107 15:06:03.024145  3455 layer_factory.hpp:77] Creating layer relu3
I1107 15:06:03.024154  3455 net.cpp:100] Creating Layer relu3
I1107 15:06:03.024158  3455 net.cpp:434] relu3 <- conv3
I1107 15:06:03.024163  3455 net.cpp:395] relu3 -> conv3 (in-place)
I1107 15:06:03.024273  3455 net.cpp:150] Setting up relu3
I1107 15:06:03.024281  3455 net.cpp:157] Top shape: 64 512 13 13 (5537792)
I1107 15:06:03.024283  3455 net.cpp:165] Memory required for data: 1174446848
I1107 15:06:03.024286  3455 layer_factory.hpp:77] Creating layer conv4
I1107 15:06:03.024293  3455 net.cpp:100] Creating Layer conv4
I1107 15:06:03.024296  3455 net.cpp:434] conv4 <- conv3
I1107 15:06:03.024301  3455 net.cpp:408] conv4 -> conv4
I1107 15:06:03.028256  3455 net.cpp:150] Setting up conv4
I1107 15:06:03.028278  3455 net.cpp:157] Top shape: 64 512 13 13 (5537792)
I1107 15:06:03.028282  3455 net.cpp:165] Memory required for data: 1196598016
I1107 15:06:03.028288  3455 layer_factory.hpp:77] Creating layer relu4
I1107 15:06:03.028297  3455 net.cpp:100] Creating Layer relu4
I1107 15:06:03.028301  3455 net.cpp:434] relu4 <- conv4
I1107 15:06:03.028306  3455 net.cpp:395] relu4 -> conv4 (in-place)
I1107 15:06:03.028415  3455 net.cpp:150] Setting up relu4
I1107 15:06:03.028422  3455 net.cpp:157] Top shape: 64 512 13 13 (5537792)
I1107 15:06:03.028425  3455 net.cpp:165] Memory required for data: 1218749184
I1107 15:06:03.028427  3455 layer_factory.hpp:77] Creating layer conv5
I1107 15:06:03.028434  3455 net.cpp:100] Creating Layer conv5
I1107 15:06:03.028437  3455 net.cpp:434] conv5 <- conv4
I1107 15:06:03.028441  3455 net.cpp:408] conv5 -> conv5
I1107 15:06:03.032459  3455 net.cpp:150] Setting up conv5
I1107 15:06:03.032482  3455 net.cpp:157] Top shape: 64 512 13 13 (5537792)
I1107 15:06:03.032485  3455 net.cpp:165] Memory required for data: 1240900352
I1107 15:06:03.032495  3455 layer_factory.hpp:77] Creating layer relu5
I1107 15:06:03.032505  3455 net.cpp:100] Creating Layer relu5
I1107 15:06:03.032526  3455 net.cpp:434] relu5 <- conv5
I1107 15:06:03.032532  3455 net.cpp:395] relu5 -> conv5 (in-place)
I1107 15:06:03.032716  3455 net.cpp:150] Setting up relu5
I1107 15:06:03.032726  3455 net.cpp:157] Top shape: 64 512 13 13 (5537792)
I1107 15:06:03.032728  3455 net.cpp:165] Memory required for data: 1263051520
I1107 15:06:03.032730  3455 layer_factory.hpp:77] Creating layer pool5
I1107 15:06:03.032739  3455 net.cpp:100] Creating Layer pool5
I1107 15:06:03.032742  3455 net.cpp:434] pool5 <- conv5
I1107 15:06:03.032747  3455 net.cpp:408] pool5 -> pool5
I1107 15:06:03.032778  3455 net.cpp:150] Setting up pool5
I1107 15:06:03.032784  3455 net.cpp:157] Top shape: 64 512 6 6 (1179648)
I1107 15:06:03.032786  3455 net.cpp:165] Memory required for data: 1267770112
I1107 15:06:03.032789  3455 layer_factory.hpp:77] Creating layer fc6
I1107 15:06:03.032794  3455 net.cpp:100] Creating Layer fc6
I1107 15:06:03.032796  3455 net.cpp:434] fc6 <- pool5
I1107 15:06:03.032800  3455 net.cpp:408] fc6 -> fc6
I1107 15:06:03.132228  3455 net.cpp:150] Setting up fc6
I1107 15:06:03.132256  3455 net.cpp:157] Top shape: 64 4096 (262144)
I1107 15:06:03.132259  3455 net.cpp:165] Memory required for data: 1268818688
I1107 15:06:03.132266  3455 layer_factory.hpp:77] Creating layer relu6
I1107 15:06:03.132277  3455 net.cpp:100] Creating Layer relu6
I1107 15:06:03.132280  3455 net.cpp:434] relu6 <- fc6
I1107 15:06:03.132285  3455 net.cpp:395] relu6 -> fc6 (in-place)
I1107 15:06:03.132546  3455 net.cpp:150] Setting up relu6
I1107 15:06:03.132555  3455 net.cpp:157] Top shape: 64 4096 (262144)
I1107 15:06:03.132557  3455 net.cpp:165] Memory required for data: 1269867264
I1107 15:06:03.132560  3455 layer_factory.hpp:77] Creating layer drop6
I1107 15:06:03.132566  3455 net.cpp:100] Creating Layer drop6
I1107 15:06:03.132568  3455 net.cpp:434] drop6 <- fc6
I1107 15:06:03.132575  3455 net.cpp:395] drop6 -> fc6 (in-place)
I1107 15:06:03.132593  3455 net.cpp:150] Setting up drop6
I1107 15:06:03.132598  3455 net.cpp:157] Top shape: 64 4096 (262144)
I1107 15:06:03.132601  3455 net.cpp:165] Memory required for data: 1270915840
I1107 15:06:03.132602  3455 layer_factory.hpp:77] Creating layer fc7
I1107 15:06:03.132608  3455 net.cpp:100] Creating Layer fc7
I1107 15:06:03.132611  3455 net.cpp:434] fc7 <- fc6
I1107 15:06:03.132614  3455 net.cpp:408] fc7 -> fc7
I1107 15:06:03.142946  3455 net.cpp:150] Setting up fc7
I1107 15:06:03.142974  3455 net.cpp:157] Top shape: 64 2048 (131072)
I1107 15:06:03.142977  3455 net.cpp:165] Memory required for data: 1271440128
I1107 15:06:03.142984  3455 layer_factory.hpp:77] Creating layer relu7
I1107 15:06:03.142995  3455 net.cpp:100] Creating Layer relu7
I1107 15:06:03.142999  3455 net.cpp:434] relu7 <- fc7
I1107 15:06:03.143003  3455 net.cpp:395] relu7 -> fc7 (in-place)
I1107 15:06:03.143268  3455 net.cpp:150] Setting up relu7
I1107 15:06:03.143276  3455 net.cpp:157] Top shape: 64 2048 (131072)
I1107 15:06:03.143280  3455 net.cpp:165] Memory required for data: 1271964416
I1107 15:06:03.143282  3455 layer_factory.hpp:77] Creating layer drop7
I1107 15:06:03.143288  3455 net.cpp:100] Creating Layer drop7
I1107 15:06:03.143291  3455 net.cpp:434] drop7 <- fc7
I1107 15:06:03.143295  3455 net.cpp:395] drop7 -> fc7 (in-place)
I1107 15:06:03.143313  3455 net.cpp:150] Setting up drop7
I1107 15:06:03.143317  3455 net.cpp:157] Top shape: 64 2048 (131072)
I1107 15:06:03.143319  3455 net.cpp:165] Memory required for data: 1272488704
I1107 15:06:03.143322  3455 layer_factory.hpp:77] Creating layer fc8_hmdb
I1107 15:06:03.143327  3455 net.cpp:100] Creating Layer fc8_hmdb
I1107 15:06:03.143329  3455 net.cpp:434] fc8_hmdb <- fc7
I1107 15:06:03.143334  3455 net.cpp:408] fc8_hmdb -> fc8
I1107 15:06:03.143471  3455 net.cpp:150] Setting up fc8_hmdb
I1107 15:06:03.143479  3455 net.cpp:157] Top shape: 64 51 (3264)
I1107 15:06:03.143481  3455 net.cpp:165] Memory required for data: 1272501760
I1107 15:06:03.143486  3455 layer_factory.hpp:77] Creating layer fc8_fc8_hmdb_0_split
I1107 15:06:03.143491  3455 net.cpp:100] Creating Layer fc8_fc8_hmdb_0_split
I1107 15:06:03.143503  3455 net.cpp:434] fc8_fc8_hmdb_0_split <- fc8
I1107 15:06:03.143507  3455 net.cpp:408] fc8_fc8_hmdb_0_split -> fc8_fc8_hmdb_0_split_0
I1107 15:06:03.143513  3455 net.cpp:408] fc8_fc8_hmdb_0_split -> fc8_fc8_hmdb_0_split_1
I1107 15:06:03.143537  3455 net.cpp:150] Setting up fc8_fc8_hmdb_0_split
I1107 15:06:03.143542  3455 net.cpp:157] Top shape: 64 51 (3264)
I1107 15:06:03.143544  3455 net.cpp:157] Top shape: 64 51 (3264)
I1107 15:06:03.143546  3455 net.cpp:165] Memory required for data: 1272527872
I1107 15:06:03.143548  3455 layer_factory.hpp:77] Creating layer loss
I1107 15:06:03.143559  3455 net.cpp:100] Creating Layer loss
I1107 15:06:03.143563  3455 net.cpp:434] loss <- fc8_fc8_hmdb_0_split_0
I1107 15:06:03.143565  3455 net.cpp:434] loss <- label_test_data_1_split_0
I1107 15:06:03.143569  3455 net.cpp:408] loss -> loss
…
