…
I1118 15:35:56.230293 19649 net.cpp:322] The NetState phase (0) differed from the phase (1) specified by a rule in layer accuracy
I1118 15:35:56.230581 19649 net.cpp:58] Initializing net from parameters: 
name: "CaffeNet"
state {
  phase: TRAIN
  level: 0
  stage: ""
}
layer {
  name: "data"
  type: "Data"
  top: "data"
  top: "label"
  include {
    phase: TRAIN
  }
  transform_param {
    mirror: true
    crop_size: 227
    mean_file: "mywork/ucf101/imagenet_mean.binaryproto"
  }
  data_param {
    source: "/home/hadoop/whx/dataset/ucf101/jpgoutput/split1/ucf101_train_lmdb"
    batch_size: 256
    backend: LMDB
  }
}
layer {
  name: "conv1"
  type: "Convolution"
  bottom: "data"
  top: "conv1"
  param {
    lr_mult: 1
    decay_mult: 1
  }
  param {
    lr_mult: 2
    decay_mult: 0
  }
  convolution_param {
    num_output: 96
    kernel_size: 11
    stride: 4
    weight_filler {
      type: "gaussian"
      std: 0.01
    }
    bias_filler {
      type: "constant"
      value: 0
    }
  }
}
layer {
  name: "relu1"
  type: "ReLU"
  bottom: "conv1"
  top: "conv1"
}
layer {
  name: "pool1"
  type: "Pooling"
  bottom: "conv1"
  top: "pool1"
  pooling_param {
    pool: MAX
    kernel_size: 3
    stride: 2
  }
}
layer {
  name: "norm1"
  type: "LRN"
  bottom: "pool1"
  top: "norm1"
  lrn_param {
    local_size: 5
    alpha: 0.0001
    beta: 0.75
  }
}
layer {
  name: "conv2"
  type: "Convolution"
  bottom: "norm1"
  top: "conv2"
  param {
    lr_mult: 1
    decay_mult: 1
  }
  param {
    lr_mult: 2
    decay_mult: 0
  }
  convolution_param {
    num_output: 256
    pad: 2
    kernel_size: 5
    group: 2
    weight_filler {
      type: "gaussian"
      std: 0.01
    }
    bias_filler {
      type: "constant"
      value: 1
    }
  }
}
layer {
  name: "relu2"
  type: "ReLU"
  bottom: "conv2"
  top: "conv2"
}
layer {
  name: "pool2"
  type: "Pooling"
  bottom: "conv2"
  top: "pool2"
  pooling_param {
    pool: MAX
    kernel_size: 3
    stride: 2
  }
}
layer {
  name: "norm2"
  type: "LRN"
  bottom: "pool2"
  top: "norm2"
  lrn_param {
    local_size: 5
    alpha: 0.0001
    beta: 0.75
  }
}
layer {
  name: "conv3"
  type: "Convolution"
  bottom: "norm2"
  top: "conv3"
  param {
    lr_mult: 1
    decay_mult: 1
  }
  param {
    lr_mult: 2
    decay_mult: 0
  }
  convolution_param {
    num_output: 384
    pad: 1
    kernel_size: 3
    weight_filler {
      type: "gaussian"
      std: 0.01
    }
    bias_filler {
      type: "constant"
      value: 0
    }
  }
}
layer {
  name: "relu3"
  type: "ReLU"
  bottom: "conv3"
  top: "conv3"
}
layer {
  name: "conv4"
  type: "Convolution"
  bottom: "conv3"
  top: "conv4"
  param {
    lr_mult: 1
    decay_mult: 1
  }
  param {
    lr_mult: 2
    decay_mult: 0
  }
  convolution_param {
    num_output: 384
    pad: 1
    kernel_size: 3
    group: 2
    weight_filler {
      type: "gaussian"
      std: 0.01
    }
    bias_filler {
      type: "constant"
      value: 1
    }
  }
}
layer {
  name: "relu4"
  type: "ReLU"
  bottom: "conv4"
  top: "conv4"
}
layer {
  name: "conv5"
  type: "Convolution"
  bottom: "conv4"
  top: "conv5"
  param {
    lr_mult: 1
    decay_mult: 1
  }
  param {
    lr_mult: 2
    decay_mult: 0
  }
  convolution_param {
    num_output: 256
    pad: 1
    kernel_size: 3
    group: 2
    weight_filler {
      type: "gaussian"
      std: 0.01
    }
    bias_filler {
      type: "constant"
      value: 1
    }
  }
}
layer {
  name: "relu5"
  type: "ReLU"
  bottom: "conv5"
  top: "conv5"
}
layer {
  name: "pool5"
  type: "Pooling"
  bottom: "conv5"
  top: "pool5"
  pooling_param {
    pool: MAX
    kernel_size: 3
    stride: 2
  }
}
layer {
  name: "fc6"
  type: "InnerProduct"
  bottom: "pool5"
  top: "fc6"
  param {
    lr_mult: 1
    decay_mult: 1
  }
  param {
    lr_mult: 2
    decay_mult: 0
  }
  inner_product_param {
    num_output: 4096
    weight_filler {
      type: "gaussian"
      std: 0.005
    }
    bias_filler {
      type: "constant"
      value: 1
    }
  }
}
layer {
  name: "relu6"
  type: "ReLU"
  bottom: "fc6"
  top: "fc6"
}
layer {
  name: "drop6"
  type: "Dropout"
  bottom: "fc6"
  top: "fc6"
  dropout_param {
    dropout_ratio: 0.5
  }
}
layer {
  name: "fc7"
  type: "InnerProduct"
  bottom: "fc6"
  top: "fc7"
  param {
    lr_mult: 1
    decay_mult: 1
  }
  param {
    lr_mult: 2
    decay_mult: 0
  }
  inner_product_param {
    num_output: 4096
    weight_filler {
      type: "gaussian"
      std: 0.005
    }
    bias_filler {
      type: "constant"
      value: 1
    }
  }
}
layer {
  name: "relu7"
  type: "ReLU"
  bottom: "fc7"
  top: "fc7"
}
layer {
  name: "drop7"
  type: "Dropout"
  bottom: "fc7"
  top: "fc7"
  dropout_param {
    dropout_ratio: 0.5
  }
}
layer {
  name: "fc8"
  type: "InnerProduct"
  bottom: "fc7"
  top: "fc8"
  param {
    lr_mult: 1
    decay_mult: 1
  }
  param {
    lr_mult: 2
    decay_mult: 0
  }
  inner_product_param {
    num_output: 1000
    weight_filler {
      type: "gaussian"
      std: 0.01
    }
    bias_filler {
      type: "constant"
      value: 0
    }
  }
}
layer {
  name: "loss"
  type: "SoftmaxWithLoss"
  bottom: "fc8"
  bottom: "label"
  top: "loss"
}
I1118 15:35:56.230713 19649 layer_factory.hpp:77] Creating layer data
I1118 15:35:56.231554 19649 net.cpp:100] Creating Layer data
I1118 15:35:56.231586 19649 net.cpp:408] data -> data
I1118 15:35:56.231612 19649 net.cpp:408] data -> label
I1118 15:35:56.231627 19649 data_transformer.cpp:25] Loading mean file from: mywork/ucf101/imagenet_mean.binaryproto
I1118 15:35:56.312168 19659 db_lmdb.cpp:35] Opened lmdb /home/hadoop/whx/dataset/ucf101/jpgoutput/split1/ucf101_train_lmdb
I1118 15:35:56.426817 19649 data_layer.cpp:41] output data size: 256,3,227,227
I1118 15:35:56.605479 19649 net.cpp:150] Setting up data
I1118 15:35:56.605511 19649 net.cpp:157] Top shape: 256 3 227 227 (39574272)
I1118 15:35:56.605516 19649 net.cpp:157] Top shape: 256 (256)
I1118 15:35:56.605520 19649 net.cpp:165] Memory required for data: 158298112
I1118 15:35:56.605527 19649 layer_factory.hpp:77] Creating layer conv1
I1118 15:35:56.605545 19649 net.cpp:100] Creating Layer conv1
I1118 15:35:56.605548 19649 net.cpp:434] conv1 <- data
I1118 15:35:56.605558 19649 net.cpp:408] conv1 -> conv1
I1118 15:35:56.802737 19660 blocking_queue.cpp:50] Waiting for data
I1118 15:35:58.189533 19649 net.cpp:150] Setting up conv1
I1118 15:35:58.189560 19649 net.cpp:157] Top shape: 256 96 55 55 (74342400)
I1118 15:35:58.189564 19649 net.cpp:165] Memory required for data: 455667712
I1118 15:35:58.189576 19649 layer_factory.hpp:77] Creating layer relu1
I1118 15:35:58.189610 19649 net.cpp:100] Creating Layer relu1
I1118 15:35:58.189616 19649 net.cpp:434] relu1 <- conv1
I1118 15:35:58.189621 19649 net.cpp:395] relu1 -> conv1 (in-place)
I1118 15:35:58.189791 19649 net.cpp:150] Setting up relu1
I1118 15:35:58.189800 19649 net.cpp:157] Top shape: 256 96 55 55 (74342400)
I1118 15:35:58.189805 19649 net.cpp:165] Memory required for data: 753037312
I1118 15:35:58.189807 19649 layer_factory.hpp:77] Creating layer pool1
I1118 15:35:58.189813 19649 net.cpp:100] Creating Layer pool1
I1118 15:35:58.189816 19649 net.cpp:434] pool1 <- conv1
I1118 15:35:58.189821 19649 net.cpp:408] pool1 -> pool1
I1118 15:35:58.189851 19649 net.cpp:150] Setting up pool1
I1118 15:35:58.189857 19649 net.cpp:157] Top shape: 256 96 27 27 (17915904)
I1118 15:35:58.189859 19649 net.cpp:165] Memory required for data: 824700928
I1118 15:35:58.189865 19649 layer_factory.hpp:77] Creating layer norm1
I1118 15:35:58.189880 19649 net.cpp:100] Creating Layer norm1
I1118 15:35:58.189883 19649 net.cpp:434] norm1 <- pool1
I1118 15:35:58.189888 19649 net.cpp:408] norm1 -> norm1
I1118 15:35:58.190078 19649 net.cpp:150] Setting up norm1
I1118 15:35:58.190088 19649 net.cpp:157] Top shape: 256 96 27 27 (17915904)
I1118 15:35:58.190091 19649 net.cpp:165] Memory required for data: 896364544
I1118 15:35:58.190094 19649 layer_factory.hpp:77] Creating layer conv2
I1118 15:35:58.190104 19649 net.cpp:100] Creating Layer conv2
I1118 15:35:58.190106 19649 net.cpp:434] conv2 <- norm1
I1118 15:35:58.190111 19649 net.cpp:408] conv2 -> conv2
I1118 15:35:58.196735 19649 net.cpp:150] Setting up conv2
I1118 15:35:58.196746 19649 net.cpp:157] Top shape: 256 256 27 27 (47775744)
I1118 15:35:58.196750 19649 net.cpp:165] Memory required for data: 1087467520
I1118 15:35:58.196758 19649 layer_factory.hpp:77] Creating layer relu2
I1118 15:35:58.196763 19649 net.cpp:100] Creating Layer relu2
I1118 15:35:58.196766 19649 net.cpp:434] relu2 <- conv2
I1118 15:35:58.196771 19649 net.cpp:395] relu2 -> conv2 (in-place)
I1118 15:35:58.196946 19649 net.cpp:150] Setting up relu2
I1118 15:35:58.196959 19649 net.cpp:157] Top shape: 256 256 27 27 (47775744)
I1118 15:35:58.196962 19649 net.cpp:165] Memory required for data: 1278570496
I1118 15:35:58.196966 19649 layer_factory.hpp:77] Creating layer pool2
I1118 15:35:58.196972 19649 net.cpp:100] Creating Layer pool2
I1118 15:35:58.196975 19649 net.cpp:434] pool2 <- conv2
I1118 15:35:58.196979 19649 net.cpp:408] pool2 -> pool2
I1118 15:35:58.197006 19649 net.cpp:150] Setting up pool2
I1118 15:35:58.197011 19649 net.cpp:157] Top shape: 256 256 13 13 (11075584)
I1118 15:35:58.197015 19649 net.cpp:165] Memory required for data: 1322872832
I1118 15:35:58.197016 19649 layer_factory.hpp:77] Creating layer norm2
I1118 15:35:58.197026 19649 net.cpp:100] Creating Layer norm2
I1118 15:35:58.197029 19649 net.cpp:434] norm2 <- pool2
I1118 15:35:58.197033 19649 net.cpp:408] norm2 -> norm2
I1118 15:35:58.197149 19649 net.cpp:150] Setting up norm2
I1118 15:35:58.197156 19649 net.cpp:157] Top shape: 256 256 13 13 (11075584)
I1118 15:35:58.197160 19649 net.cpp:165] Memory required for data: 1367175168
I1118 15:35:58.197162 19649 layer_factory.hpp:77] Creating layer conv3
I1118 15:35:58.197170 19649 net.cpp:100] Creating Layer conv3
I1118 15:35:58.197173 19649 net.cpp:434] conv3 <- norm2
I1118 15:35:58.197178 19649 net.cpp:408] conv3 -> conv3
I1118 15:35:58.213497 19649 net.cpp:150] Setting up conv3
I1118 15:35:58.213511 19649 net.cpp:157] Top shape: 256 384 13 13 (16613376)
I1118 15:35:58.213515 19649 net.cpp:165] Memory required for data: 1433628672
I1118 15:35:58.213522 19649 layer_factory.hpp:77] Creating layer relu3
I1118 15:35:58.213528 19649 net.cpp:100] Creating Layer relu3
I1118 15:35:58.213531 19649 net.cpp:434] relu3 <- conv3
I1118 15:35:58.213536 19649 net.cpp:395] relu3 -> conv3 (in-place)
I1118 15:35:58.213707 19649 net.cpp:150] Setting up relu3
I1118 15:35:58.213716 19649 net.cpp:157] Top shape: 256 384 13 13 (16613376)
I1118 15:35:58.213718 19649 net.cpp:165] Memory required for data: 1500082176
I1118 15:35:58.213722 19649 layer_factory.hpp:77] Creating layer conv4
I1118 15:35:58.213731 19649 net.cpp:100] Creating Layer conv4
I1118 15:35:58.213733 19649 net.cpp:434] conv4 <- conv3
I1118 15:35:58.213739 19649 net.cpp:408] conv4 -> conv4
I1118 15:35:58.226476 19649 net.cpp:150] Setting up conv4
I1118 15:35:58.226490 19649 net.cpp:157] Top shape: 256 384 13 13 (16613376)
I1118 15:35:58.226493 19649 net.cpp:165] Memory required for data: 1566535680
I1118 15:35:58.226498 19649 layer_factory.hpp:77] Creating layer relu4
I1118 15:35:58.226505 19649 net.cpp:100] Creating Layer relu4
I1118 15:35:58.226507 19649 net.cpp:434] relu4 <- conv4
I1118 15:35:58.226511 19649 net.cpp:395] relu4 -> conv4 (in-place)
I1118 15:35:58.226683 19649 net.cpp:150] Setting up relu4
I1118 15:35:58.226692 19649 net.cpp:157] Top shape: 256 384 13 13 (16613376)
I1118 15:35:58.226696 19649 net.cpp:165] Memory required for data: 1632989184
I1118 15:35:58.226711 19649 layer_factory.hpp:77] Creating layer conv5
I1118 15:35:58.226718 19649 net.cpp:100] Creating Layer conv5
I1118 15:35:58.226722 19649 net.cpp:434] conv5 <- conv4
I1118 15:35:58.226728 19649 net.cpp:408] conv5 -> conv5
I1118 15:35:58.235649 19649 net.cpp:150] Setting up conv5
I1118 15:35:58.235661 19649 net.cpp:157] Top shape: 256 256 13 13 (11075584)
I1118 15:35:58.235666 19649 net.cpp:165] Memory required for data: 1677291520
I1118 15:35:58.235673 19649 layer_factory.hpp:77] Creating layer relu5
I1118 15:35:58.235679 19649 net.cpp:100] Creating Layer relu5
I1118 15:35:58.235682 19649 net.cpp:434] relu5 <- conv5
I1118 15:35:58.235687 19649 net.cpp:395] relu5 -> conv5 (in-place)
I1118 15:35:58.235859 19649 net.cpp:150] Setting up relu5
I1118 15:35:58.235868 19649 net.cpp:157] Top shape: 256 256 13 13 (11075584)
I1118 15:35:58.235872 19649 net.cpp:165] Memory required for data: 1721593856
I1118 15:35:58.235875 19649 layer_factory.hpp:77] Creating layer pool5
I1118 15:35:58.235880 19649 net.cpp:100] Creating Layer pool5
I1118 15:35:58.235883 19649 net.cpp:434] pool5 <- conv5
I1118 15:35:58.235889 19649 net.cpp:408] pool5 -> pool5
I1118 15:35:58.235918 19649 net.cpp:150] Setting up pool5
I1118 15:35:58.235924 19649 net.cpp:157] Top shape: 256 256 6 6 (2359296)
I1118 15:35:58.235926 19649 net.cpp:165] Memory required for data: 1731031040
I1118 15:35:58.235929 19649 layer_factory.hpp:77] Creating layer fc6
I1118 15:35:58.235936 19649 net.cpp:100] Creating Layer fc6
I1118 15:35:58.235940 19649 net.cpp:434] fc6 <- pool5
I1118 15:35:58.235945 19649 net.cpp:408] fc6 -> fc6
I1118 15:35:58.885438 19649 net.cpp:150] Setting up fc6
I1118 15:35:58.885469 19649 net.cpp:157] Top shape: 256 4096 (1048576)
I1118 15:35:58.885473 19649 net.cpp:165] Memory required for data: 1735225344
I1118 15:35:58.885480 19649 layer_factory.hpp:77] Creating layer relu6
I1118 15:35:58.885488 19649 net.cpp:100] Creating Layer relu6
I1118 15:35:58.885493 19649 net.cpp:434] relu6 <- fc6
I1118 15:35:58.885498 19649 net.cpp:395] relu6 -> fc6 (in-place)
I1118 15:35:58.885640 19649 net.cpp:150] Setting up relu6
I1118 15:35:58.885648 19649 net.cpp:157] Top shape: 256 4096 (1048576)
I1118 15:35:58.885651 19649 net.cpp:165] Memory required for data: 1739419648
I1118 15:35:58.885654 19649 layer_factory.hpp:77] Creating layer drop6
I1118 15:35:58.885660 19649 net.cpp:100] Creating Layer drop6
I1118 15:35:58.885664 19649 net.cpp:434] drop6 <- fc6
I1118 15:35:58.885668 19649 net.cpp:395] drop6 -> fc6 (in-place)
I1118 15:35:58.885684 19649 net.cpp:150] Setting up drop6
I1118 15:35:58.885689 19649 net.cpp:157] Top shape: 256 4096 (1048576)
I1118 15:35:58.885692 19649 net.cpp:165] Memory required for data: 1743613952
I1118 15:35:58.885695 19649 layer_factory.hpp:77] Creating layer fc7
I1118 15:35:58.885701 19649 net.cpp:100] Creating Layer fc7
I1118 15:35:58.885704 19649 net.cpp:434] fc7 <- fc6
I1118 15:35:58.885710 19649 net.cpp:408] fc7 -> fc7
I1118 15:35:59.174283 19649 net.cpp:150] Setting up fc7
I1118 15:35:59.174312 19649 net.cpp:157] Top shape: 256 4096 (1048576)
I1118 15:35:59.174315 19649 net.cpp:165] Memory required for data: 1747808256
I1118 15:35:59.174322 19649 layer_factory.hpp:77] Creating layer relu7
I1118 15:35:59.174331 19649 net.cpp:100] Creating Layer relu7
I1118 15:35:59.174335 19649 net.cpp:434] relu7 <- fc7
I1118 15:35:59.174341 19649 net.cpp:395] relu7 -> fc7 (in-place)
I1118 15:35:59.174599 19649 net.cpp:150] Setting up relu7
I1118 15:35:59.174608 19649 net.cpp:157] Top shape: 256 4096 (1048576)
I1118 15:35:59.174612 19649 net.cpp:165] Memory required for data: 1752002560
I1118 15:35:59.174615 19649 layer_factory.hpp:77] Creating layer drop7
I1118 15:35:59.174621 19649 net.cpp:100] Creating Layer drop7
I1118 15:35:59.174625 19649 net.cpp:434] drop7 <- fc7
I1118 15:35:59.174629 19649 net.cpp:395] drop7 -> fc7 (in-place)
I1118 15:35:59.174643 19649 net.cpp:150] Setting up drop7
I1118 15:35:59.174649 19649 net.cpp:157] Top shape: 256 4096 (1048576)
I1118 15:35:59.174651 19649 net.cpp:165] Memory required for data: 1756196864
I1118 15:35:59.174665 19649 layer_factory.hpp:77] Creating layer fc8
I1118 15:35:59.174674 19649 net.cpp:100] Creating Layer fc8
I1118 15:35:59.174676 19649 net.cpp:434] fc8 <- fc7
I1118 15:35:59.174681 19649 net.cpp:408] fc8 -> fc8
I1118 15:35:59.245291 19649 net.cpp:150] Setting up fc8
I1118 15:35:59.245321 19649 net.cpp:157] Top shape: 256 1000 (256000)
I1118 15:35:59.245323 19649 net.cpp:165] Memory required for data: 1757220864
I1118 15:35:59.245332 19649 layer_factory.hpp:77] Creating layer loss
I1118 15:35:59.245339 19649 net.cpp:100] Creating Layer loss
I1118 15:35:59.245343 19649 net.cpp:434] loss <- fc8
I1118 15:35:59.245347 19649 net.cpp:434] loss <- label
I1118 15:35:59.245353 19649 net.cpp:408] loss -> loss
I1118 15:35:59.245365 19649 layer_factory.hpp:77] Creating layer loss
…
I1118 15:35:59.246561 19649 net.cpp:322] The NetState phase (1) differed from the phase (0) specified by a rule in layer data
I1118 15:35:59.246736 19649 net.cpp:58] Initializing net from parameters: 
name: "CaffeNet"
state {
  phase: TEST
}
layer {
  name: "data"
  type: "Data"
  top: "data"
  top: "label"
  include {
    phase: TEST
  }
  transform_param {
    mirror: false
    crop_size: 227
    mean_file: "mywork/ucf101/imagenet_mean.binaryproto"
  }
  data_param {
    source: "/home/hadoop/whx/dataset/ucf101/jpgoutput/split1/ucf101_val_lmdb"
    batch_size: 50
    backend: LMDB
  }
}
layer {
  name: "conv1"
  type: "Convolution"
  bottom: "data"
  top: "conv1"
  param {
    lr_mult: 1
    decay_mult: 1
  }
  param {
    lr_mult: 2
    decay_mult: 0
  }
  convolution_param {
    num_output: 96
    kernel_size: 11
    stride: 4
    weight_filler {
      type: "gaussian"
      std: 0.01
    }
    bias_filler {
      type: "constant"
      value: 0
    }
  }
}
layer {
  name: "relu1"
  type: "ReLU"
  bottom: "conv1"
  top: "conv1"
}
layer {
  name: "pool1"
  type: "Pooling"
  bottom: "conv1"
  top: "pool1"
  pooling_param {
    pool: MAX
    kernel_size: 3
    stride: 2
  }
}
layer {
  name: "norm1"
  type: "LRN"
  bottom: "pool1"
  top: "norm1"
  lrn_param {
    local_size: 5
    alpha: 0.0001
    beta: 0.75
  }
}
layer {
  name: "conv2"
  type: "Convolution"
  bottom: "norm1"
  top: "conv2"
  param {
    lr_mult: 1
    decay_mult: 1
  }
  param {
    lr_mult: 2
    decay_mult: 0
  }
  convolution_param {
    num_output: 256
    pad: 2
    kernel_size: 5
    group: 2
    weight_filler {
      type: "gaussian"
      std: 0.01
    }
    bias_filler {
      type: "constant"
      value: 1
    }
  }
}
layer {
  name: "relu2"
  type: "ReLU"
  bottom: "conv2"
  top: "conv2"
}
layer {
  name: "pool2"
  type: "Pooling"
  bottom: "conv2"
  top: "pool2"
  pooling_param {
    pool: MAX
    kernel_size: 3
    stride: 2
  }
}
layer {
  name: "norm2"
  type: "LRN"
  bottom: "pool2"
  top: "norm2"
  lrn_param {
    local_size: 5
    alpha: 0.0001
    beta: 0.75
  }
}
layer {
  name: "conv3"
  type: "Convolution"
  bottom: "norm2"
  top: "conv3"
  param {
    lr_mult: 1
    decay_mult: 1
  }
  param {
    lr_mult: 2
    decay_mult: 0
  }
  convolution_param {
    num_output: 384
    pad: 1
    kernel_size: 3
    weight_filler {
      type: "gaussian"
      std: 0.01
    }
    bias_filler {
      type: "constant"
      value: 0
    }
  }
}
layer {
  name: "relu3"
  type: "ReLU"
  bottom: "conv3"
  top: "conv3"
}
layer {
  name: "conv4"
  type: "Convolution"
  bottom: "conv3"
  top: "conv4"
  param {
    lr_mult: 1
    decay_mult: 1
  }
  param {
    lr_mult: 2
    decay_mult: 0
  }
  convolution_param {
    num_output: 384
    pad: 1
    kernel_size: 3
    group: 2
    weight_filler {
      type: "gaussian"
      std: 0.01
    }
    bias_filler {
      type: "constant"
      value: 1
    }
  }
}
layer {
  name: "relu4"
  type: "ReLU"
  bottom: "conv4"
  top: "conv4"
}
layer {
  name: "conv5"
  type: "Convolution"
  bottom: "conv4"
  top: "conv5"
  param {
    lr_mult: 1
    decay_mult: 1
  }
  param {
    lr_mult: 2
    decay_mult: 0
  }
  convolution_param {
    num_output: 256
    pad: 1
    kernel_size: 3
    group: 2
    weight_filler {
      type: "gaussian"
      std: 0.01
    }
    bias_filler {
      type: "constant"
      value: 1
    }
  }
}
layer {
  name: "relu5"
  type: "ReLU"
  bottom: "conv5"
  top: "conv5"
}
layer {
  name: "pool5"
  type: "Pooling"
  bottom: "conv5"
  top: "pool5"
  pooling_param {
    pool: MAX
    kernel_size: 3
    stride: 2
  }
}
layer {
  name: "fc6"
  type: "InnerProduct"
  bottom: "pool5"
  top: "fc6"
  param {
    lr_mult: 1
    decay_mult: 1
  }
  param {
    lr_mult: 2
    decay_mult: 0
  }
  inner_product_param {
    num_output: 4096
    weight_filler {
      type: "gaussian"
      std: 0.005
    }
    bias_filler {
      type: "constant"
      value: 1
    }
  }
}
layer {
  name: "relu6"
  type: "ReLU"
  bottom: "fc6"
  top: "fc6"
}
layer {
  name: "drop6"
  type: "Dropout"
  bottom: "fc6"
  top: "fc6"
  dropout_param {
    dropout_ratio: 0.5
  }
}
layer {
  name: "fc7"
  type: "InnerProduct"
  bottom: "fc6"
  top: "fc7"
  param {
    lr_mult: 1
    decay_mult: 1
  }
  param {
    lr_mult: 2
    decay_mult: 0
  }
  inner_product_param {
    num_output: 4096
    weight_filler {
      type: "gaussian"
      std: 0.005
    }
    bias_filler {
      type: "constant"
      value: 1
    }
  }
}
layer {
  name: "relu7"
  type: "ReLU"
  bottom: "fc7"
  top: "fc7"
}
layer {
  name: "drop7"
  type: "Dropout"
  bottom: "fc7"
  top: "fc7"
  dropout_param {
    dropout_ratio: 0.5
  }
}
layer {
  name: "fc8"
  type: "InnerProduct"
  bottom: "fc7"
  top: "fc8"
  param {
    lr_mult: 1
    decay_mult: 1
  }
  param {
    lr_mult: 2
    decay_mult: 0
  }
  inner_product_param {
    num_output: 1000
    weight_filler {
      type: "gaussian"
      std: 0.01
    }
    bias_filler {
      type: "constant"
      value: 0
    }
  }
}
layer {
  name: "accuracy"
  type: "Accuracy"
  bottom: "fc8"
  bottom: "label"
  top: "accuracy"
  include {
    phase: TEST
  }
}
layer {
  name: "loss"
  type: "SoftmaxWithLoss"
  bottom: "fc8"
  bottom: "label"
  top: "loss"
}
I1118 15:35:59.246826 19649 layer_factory.hpp:77] Creating layer data
I1118 15:35:59.246973 19649 net.cpp:100] Creating Layer data
I1118 15:35:59.246980 19649 net.cpp:408] data -> data
I1118 15:35:59.246987 19649 net.cpp:408] data -> label
I1118 15:35:59.246994 19649 data_transformer.cpp:25] Loading mean file from: mywork/ucf101/imagenet_mean.binaryproto
I1118 15:35:59.272785 19662 db_lmdb.cpp:35] Opened lmdb /home/hadoop/whx/dataset/ucf101/jpgoutput/split1/ucf101_val_lmdb
I1118 15:35:59.287569 19649 data_layer.cpp:41] output data size: 50,3,227,227
I1118 15:35:59.319713 19649 net.cpp:150] Setting up data
I1118 15:35:59.319743 19649 net.cpp:157] Top shape: 50 3 227 227 (7729350)
I1118 15:35:59.319749 19649 net.cpp:157] Top shape: 50 (50)
I1118 15:35:59.319752 19649 net.cpp:165] Memory required for data: 30917600
I1118 15:35:59.319757 19649 layer_factory.hpp:77] Creating layer label_data_1_split
I1118 15:35:59.319767 19649 net.cpp:100] Creating Layer label_data_1_split
I1118 15:35:59.319772 19649 net.cpp:434] label_data_1_split <- label
I1118 15:35:59.319777 19649 net.cpp:408] label_data_1_split -> label_data_1_split_0
I1118 15:35:59.319784 19649 net.cpp:408] label_data_1_split -> label_data_1_split_1
I1118 15:35:59.319854 19649 net.cpp:150] Setting up label_data_1_split
I1118 15:35:59.319861 19649 net.cpp:157] Top shape: 50 (50)
I1118 15:35:59.319865 19649 net.cpp:157] Top shape: 50 (50)
I1118 15:35:59.319867 19649 net.cpp:165] Memory required for data: 30918000
I1118 15:35:59.319870 19649 layer_factory.hpp:77] Creating layer conv1
I1118 15:35:59.319880 19649 net.cpp:100] Creating Layer conv1
I1118 15:35:59.319883 19649 net.cpp:434] conv1 <- data
I1118 15:35:59.319888 19649 net.cpp:408] conv1 -> conv1
I1118 15:35:59.323814 19649 net.cpp:150] Setting up conv1
I1118 15:35:59.323827 19649 net.cpp:157] Top shape: 50 96 55 55 (14520000)
I1118 15:35:59.323832 19649 net.cpp:165] Memory required for data: 88998000
I1118 15:35:59.323839 19649 layer_factory.hpp:77] Creating layer relu1
I1118 15:35:59.323846 19649 net.cpp:100] Creating Layer relu1
I1118 15:35:59.323849 19649 net.cpp:434] relu1 <- conv1
I1118 15:35:59.323853 19649 net.cpp:395] relu1 -> conv1 (in-place)
I1118 15:35:59.324030 19649 net.cpp:150] Setting up relu1
I1118 15:35:59.324039 19649 net.cpp:157] Top shape: 50 96 55 55 (14520000)
I1118 15:35:59.324043 19649 net.cpp:165] Memory required for data: 147078000
I1118 15:35:59.324045 19649 layer_factory.hpp:77] Creating layer pool1
I1118 15:35:59.324053 19649 net.cpp:100] Creating Layer pool1
I1118 15:35:59.324055 19649 net.cpp:434] pool1 <- conv1
I1118 15:35:59.324060 19649 net.cpp:408] pool1 -> pool1
I1118 15:35:59.324089 19649 net.cpp:150] Setting up pool1
I1118 15:35:59.324093 19649 net.cpp:157] Top shape: 50 96 27 27 (3499200)
I1118 15:35:59.324095 19649 net.cpp:165] Memory required for data: 161074800
I1118 15:35:59.324098 19649 layer_factory.hpp:77] Creating layer norm1
I1118 15:35:59.324105 19649 net.cpp:100] Creating Layer norm1
I1118 15:35:59.324107 19649 net.cpp:434] norm1 <- pool1
I1118 15:35:59.324111 19649 net.cpp:408] norm1 -> norm1
I1118 15:35:59.324226 19649 net.cpp:150] Setting up norm1
I1118 15:35:59.324234 19649 net.cpp:157] Top shape: 50 96 27 27 (3499200)
I1118 15:35:59.324235 19649 net.cpp:165] Memory required for data: 175071600
I1118 15:35:59.324239 19649 layer_factory.hpp:77] Creating layer conv2
I1118 15:35:59.324246 19649 net.cpp:100] Creating Layer conv2
I1118 15:35:59.324249 19649 net.cpp:434] conv2 <- norm1
I1118 15:35:59.324254 19649 net.cpp:408] conv2 -> conv2
I1118 15:35:59.330746 19649 net.cpp:150] Setting up conv2
I1118 15:35:59.330777 19649 net.cpp:157] Top shape: 50 256 27 27 (9331200)
I1118 15:35:59.330781 19649 net.cpp:165] Memory required for data: 212396400
I1118 15:35:59.330791 19649 layer_factory.hpp:77] Creating layer relu2
I1118 15:35:59.330808 19649 net.cpp:100] Creating Layer relu2
I1118 15:35:59.330821 19649 net.cpp:434] relu2 <- conv2
I1118 15:35:59.330826 19649 net.cpp:395] relu2 -> conv2 (in-place)
I1118 15:35:59.330934 19649 net.cpp:150] Setting up relu2
I1118 15:35:59.330947 19649 net.cpp:157] Top shape: 50 256 27 27 (9331200)
I1118 15:35:59.330950 19649 net.cpp:165] Memory required for data: 249721200
I1118 15:35:59.330955 19649 layer_factory.hpp:77] Creating layer pool2
I1118 15:35:59.330961 19649 net.cpp:100] Creating Layer pool2
I1118 15:35:59.330965 19649 net.cpp:434] pool2 <- conv2
I1118 15:35:59.330970 19649 net.cpp:408] pool2 -> pool2
I1118 15:35:59.331001 19649 net.cpp:150] Setting up pool2
I1118 15:35:59.331007 19649 net.cpp:157] Top shape: 50 256 13 13 (2163200)
I1118 15:35:59.331008 19649 net.cpp:165] Memory required for data: 258374000
I1118 15:35:59.331012 19649 layer_factory.hpp:77] Creating layer norm2
I1118 15:35:59.331017 19649 net.cpp:100] Creating Layer norm2
I1118 15:35:59.331020 19649 net.cpp:434] norm2 <- pool2
I1118 15:35:59.331024 19649 net.cpp:408] norm2 -> norm2
I1118 15:35:59.331212 19649 net.cpp:150] Setting up norm2
I1118 15:35:59.331219 19649 net.cpp:157] Top shape: 50 256 13 13 (2163200)
I1118 15:35:59.331223 19649 net.cpp:165] Memory required for data: 267026800
I1118 15:35:59.331226 19649 layer_factory.hpp:77] Creating layer conv3
I1118 15:35:59.331234 19649 net.cpp:100] Creating Layer conv3
I1118 15:35:59.331238 19649 net.cpp:434] conv3 <- norm2
I1118 15:35:59.331243 19649 net.cpp:408] conv3 -> conv3
I1118 15:35:59.347283 19649 net.cpp:150] Setting up conv3
I1118 15:35:59.347314 19649 net.cpp:157] Top shape: 50 384 13 13 (3244800)
I1118 15:35:59.347318 19649 net.cpp:165] Memory required for data: 280006000
I1118 15:35:59.347328 19649 layer_factory.hpp:77] Creating layer relu3
I1118 15:35:59.347337 19649 net.cpp:100] Creating Layer relu3
I1118 15:35:59.347342 19649 net.cpp:434] relu3 <- conv3
I1118 15:35:59.347347 19649 net.cpp:395] relu3 -> conv3 (in-place)
I1118 15:35:59.347450 19649 net.cpp:150] Setting up relu3
I1118 15:35:59.347457 19649 net.cpp:157] Top shape: 50 384 13 13 (3244800)
I1118 15:35:59.347460 19649 net.cpp:165] Memory required for data: 292985200
I1118 15:35:59.347463 19649 layer_factory.hpp:77] Creating layer conv4
I1118 15:35:59.347471 19649 net.cpp:100] Creating Layer conv4
I1118 15:35:59.347476 19649 net.cpp:434] conv4 <- conv3
I1118 15:35:59.347479 19649 net.cpp:408] conv4 -> conv4
I1118 15:35:59.360121 19649 net.cpp:150] Setting up conv4
I1118 15:35:59.360148 19649 net.cpp:157] Top shape: 50 384 13 13 (3244800)
I1118 15:35:59.360152 19649 net.cpp:165] Memory required for data: 305964400
I1118 15:35:59.360158 19649 layer_factory.hpp:77] Creating layer relu4
I1118 15:35:59.360167 19649 net.cpp:100] Creating Layer relu4
I1118 15:35:59.360172 19649 net.cpp:434] relu4 <- conv4
I1118 15:35:59.360177 19649 net.cpp:395] relu4 -> conv4 (in-place)
I1118 15:35:59.360287 19649 net.cpp:150] Setting up relu4
I1118 15:35:59.360296 19649 net.cpp:157] Top shape: 50 384 13 13 (3244800)
I1118 15:35:59.360298 19649 net.cpp:165] Memory required for data: 318943600
I1118 15:35:59.360301 19649 layer_factory.hpp:77] Creating layer conv5
I1118 15:35:59.360311 19649 net.cpp:100] Creating Layer conv5
I1118 15:35:59.360313 19649 net.cpp:434] conv5 <- conv4
I1118 15:35:59.360318 19649 net.cpp:408] conv5 -> conv5
I1118 15:35:59.369107 19649 net.cpp:150] Setting up conv5
I1118 15:35:59.369138 19649 net.cpp:157] Top shape: 50 256 13 13 (2163200)
I1118 15:35:59.369143 19649 net.cpp:165] Memory required for data: 327596400
I1118 15:35:59.369153 19649 layer_factory.hpp:77] Creating layer relu5
I1118 15:35:59.369161 19649 net.cpp:100] Creating Layer relu5
I1118 15:35:59.369165 19649 net.cpp:434] relu5 <- conv5
I1118 15:35:59.369170 19649 net.cpp:395] relu5 -> conv5 (in-place)
I1118 15:35:59.369344 19649 net.cpp:150] Setting up relu5
I1118 15:35:59.369352 19649 net.cpp:157] Top shape: 50 256 13 13 (2163200)
I1118 15:35:59.369356 19649 net.cpp:165] Memory required for data: 336249200
I1118 15:35:59.369359 19649 layer_factory.hpp:77] Creating layer pool5
I1118 15:35:59.369379 19649 net.cpp:100] Creating Layer pool5
I1118 15:35:59.369381 19649 net.cpp:434] pool5 <- conv5
I1118 15:35:59.369386 19649 net.cpp:408] pool5 -> pool5
I1118 15:35:59.369417 19649 net.cpp:150] Setting up pool5
I1118 15:35:59.369422 19649 net.cpp:157] Top shape: 50 256 6 6 (460800)
I1118 15:35:59.369426 19649 net.cpp:165] Memory required for data: 338092400
I1118 15:35:59.369428 19649 layer_factory.hpp:77] Creating layer fc6
I1118 15:35:59.369434 19649 net.cpp:100] Creating Layer fc6
I1118 15:35:59.369437 19649 net.cpp:434] fc6 <- pool5
I1118 15:35:59.369441 19649 net.cpp:408] fc6 -> fc6
I1118 15:36:00.020089 19649 net.cpp:150] Setting up fc6
I1118 15:36:00.020117 19649 net.cpp:157] Top shape: 50 4096 (204800)
I1118 15:36:00.020119 19649 net.cpp:165] Memory required for data: 338911600
I1118 15:36:00.020126 19649 layer_factory.hpp:77] Creating layer relu6
I1118 15:36:00.020135 19649 net.cpp:100] Creating Layer relu6
I1118 15:36:00.020139 19649 net.cpp:434] relu6 <- fc6
I1118 15:36:00.020144 19649 net.cpp:395] relu6 -> fc6 (in-place)
I1118 15:36:00.020288 19649 net.cpp:150] Setting up relu6
I1118 15:36:00.020295 19649 net.cpp:157] Top shape: 50 4096 (204800)
I1118 15:36:00.020298 19649 net.cpp:165] Memory required for data: 339730800
I1118 15:36:00.020301 19649 layer_factory.hpp:77] Creating layer drop6
I1118 15:36:00.020308 19649 net.cpp:100] Creating Layer drop6
I1118 15:36:00.020310 19649 net.cpp:434] drop6 <- fc6
I1118 15:36:00.020314 19649 net.cpp:395] drop6 -> fc6 (in-place)
I1118 15:36:00.020334 19649 net.cpp:150] Setting up drop6
I1118 15:36:00.020339 19649 net.cpp:157] Top shape: 50 4096 (204800)
I1118 15:36:00.020342 19649 net.cpp:165] Memory required for data: 340550000
I1118 15:36:00.020345 19649 layer_factory.hpp:77] Creating layer fc7
I1118 15:36:00.020351 19649 net.cpp:100] Creating Layer fc7
I1118 15:36:00.020354 19649 net.cpp:434] fc7 <- fc6
I1118 15:36:00.020359 19649 net.cpp:408] fc7 -> fc7
I1118 15:36:00.309439 19649 net.cpp:150] Setting up fc7
I1118 15:36:00.309469 19649 net.cpp:157] Top shape: 50 4096 (204800)
I1118 15:36:00.309473 19649 net.cpp:165] Memory required for data: 341369200
I1118 15:36:00.309480 19649 layer_factory.hpp:77] Creating layer relu7
I1118 15:36:00.309489 19649 net.cpp:100] Creating Layer relu7
I1118 15:36:00.309492 19649 net.cpp:434] relu7 <- fc7
I1118 15:36:00.309497 19649 net.cpp:395] relu7 -> fc7 (in-place)
I1118 15:36:00.309762 19649 net.cpp:150] Setting up relu7
I1118 15:36:00.309770 19649 net.cpp:157] Top shape: 50 4096 (204800)
I1118 15:36:00.309773 19649 net.cpp:165] Memory required for data: 342188400
I1118 15:36:00.309777 19649 layer_factory.hpp:77] Creating layer drop7
I1118 15:36:00.309783 19649 net.cpp:100] Creating Layer drop7
I1118 15:36:00.309787 19649 net.cpp:434] drop7 <- fc7
I1118 15:36:00.309790 19649 net.cpp:395] drop7 -> fc7 (in-place)
I1118 15:36:00.309813 19649 net.cpp:150] Setting up drop7
I1118 15:36:00.309816 19649 net.cpp:157] Top shape: 50 4096 (204800)
I1118 15:36:00.309819 19649 net.cpp:165] Memory required for data: 343007600
I1118 15:36:00.309823 19649 layer_factory.hpp:77] Creating layer fc8
I1118 15:36:00.309828 19649 net.cpp:100] Creating Layer fc8
I1118 15:36:00.309831 19649 net.cpp:434] fc8 <- fc7
I1118 15:36:00.309835 19649 net.cpp:408] fc8 -> fc8
I1118 15:36:00.380609 19649 net.cpp:150] Setting up fc8
I1118 15:36:00.380640 19649 net.cpp:157] Top shape: 50 1000 (50000)
I1118 15:36:00.380645 19649 net.cpp:165] Memory required for data: 343207600
I1118 15:36:00.380651 19649 layer_factory.hpp:77] Creating layer fc8_fc8_0_split
I1118 15:36:00.380659 19649 net.cpp:100] Creating Layer fc8_fc8_0_split
I1118 15:36:00.380664 19649 net.cpp:434] fc8_fc8_0_split <- fc8
I1118 15:36:00.380669 19649 net.cpp:408] fc8_fc8_0_split -> fc8_fc8_0_split_0
I1118 15:36:00.380676 19649 net.cpp:408] fc8_fc8_0_split -> fc8_fc8_0_split_1
I1118 15:36:00.380704 19649 net.cpp:150] Setting up fc8_fc8_0_split
I1118 15:36:00.380708 19649 net.cpp:157] Top shape: 50 1000 (50000)
I1118 15:36:00.380712 19649 net.cpp:157] Top shape: 50 1000 (50000)
I1118 15:36:00.380723 19649 net.cpp:165] Memory required for data: 343607600
I1118 15:36:00.380733 19649 layer_factory.hpp:77] Creating layer accuracy
I1118 15:36:00.380738 19649 net.cpp:100] Creating Layer accuracy
I1118 15:36:00.380741 19649 net.cpp:434] accuracy <- fc8_fc8_0_split_0
I1118 15:36:00.380745 19649 net.cpp:434] accuracy <- label_data_1_split_0
I1118 15:36:00.380749 19649 net.cpp:408] accuracy -> accuracy
…
