…
I1124 21:27:32.857164  6637 net.cpp:322] The NetState phase (0) differed from the phase (1) specified by a rule in layer data
I1124 21:27:32.857347  6637 net.cpp:58] Initializing net from parameters: 
name: "CaffeNet"
state {
  phase: TRAIN
  level: 0
  stage: ""
}
layer {
  name: "data"
  type: "Data"
  top: "data"
  top: "label"
  include {
    phase: TRAIN
  }
  transform_param {
    mirror: true
    crop_size: 224
    mean_file: "mywork/ucf101/imagenet_mean.binaryproto"
  }
  data_param {
    source: "/home/hadoop/whx/dataset/ucf101/jpgoutput/split1/ucf101_train_lmdb"
    batch_size: 128
    backend: LMDB
  }
}
layer {
  name: "conv1"
  type: "Convolution"
  bottom: "data"
  top: "conv1"
  param {
    lr_mult: 1
    decay_mult: 1
  }
  param {
    lr_mult: 2
    decay_mult: 0
  }
  convolution_param {
    num_output: 96
    kernel_size: 7
    stride: 2
    weight_filler {
      type: "gaussian"
      std: 0.01
    }
    bias_filler {
      type: "constant"
      value: 0
    }
  }
}
layer {
  name: "relu1"
  type: "ReLU"
  bottom: "conv1"
  top: "conv1"
}
layer {
  name: "pool1"
  type: "Pooling"
  bottom: "conv1"
  top: "pool1"
  pooling_param {
    pool: MAX
    kernel_size: 3
    stride: 2
  }
}
layer {
  name: "norm1"
  type: "LRN"
  bottom: "pool1"
  top: "norm1"
  lrn_param {
    local_size: 5
    alpha: 0.0001
    beta: 0.75
  }
}
layer {
  name: "conv2"
  type: "Convolution"
  bottom: "norm1"
  top: "conv2"
  param {
    lr_mult: 1
    decay_mult: 1
  }
  param {
    lr_mult: 2
    decay_mult: 0
  }
  convolution_param {
    num_output: 256
    pad: 1
    kernel_size: 5
    stride: 2
    weight_filler {
      type: "gaussian"
      std: 0.01
    }
    bias_filler {
      type: "constant"
      value: 1
    }
  }
}
layer {
  name: "relu2"
  type: "ReLU"
  bottom: "conv2"
  top: "conv2"
}
layer {
  name: "pool2"
  type: "Pooling"
  bottom: "conv2"
  top: "pool2"
  pooling_param {
    pool: MAX
    kernel_size: 3
    stride: 2
  }
}
layer {
  name: "norm2"
  type: "LRN"
  bottom: "pool2"
  top: "norm2"
  lrn_param {
    local_size: 5
    alpha: 0.0001
    beta: 0.75
  }
}
layer {
  name: "conv3"
  type: "Convolution"
  bottom: "norm2"
  top: "conv3"
  param {
    lr_mult: 1
    decay_mult: 1
  }
  param {
    lr_mult: 2
    decay_mult: 0
  }
  convolution_param {
    num_output: 512
    pad: 1
    kernel_size: 3
    weight_filler {
      type: "gaussian"
      std: 0.01
    }
    bias_filler {
      type: "constant"
      value: 0
    }
  }
}
layer {
  name: "relu3"
  type: "ReLU"
  bottom: "conv3"
  top: "conv3"
}
layer {
  name: "conv4"
  type: "Convolution"
  bottom: "conv3"
  top: "conv4"
  param {
    lr_mult: 1
    decay_mult: 1
  }
  param {
    lr_mult: 2
    decay_mult: 0
  }
  convolution_param {
    num_output: 512
    pad: 1
    kernel_size: 3
    weight_filler {
      type: "gaussian"
      std: 0.01
    }
    bias_filler {
      type: "constant"
      value: 1
    }
  }
}
layer {
  name: "relu4"
  type: "ReLU"
  bottom: "conv4"
  top: "conv4"
}
layer {
  name: "conv5"
  type: "Convolution"
  bottom: "conv4"
  top: "conv5"
  param {
    lr_mult: 1
    decay_mult: 1
  }
  param {
    lr_mult: 2
    decay_mult: 0
  }
  convolution_param {
    num_output: 512
    pad: 1
    kernel_size: 3
    weight_filler {
      type: "gaussian"
      std: 0.01
    }
    bias_filler {
      type: "constant"
      value: 1
    }
  }
}
layer {
  name: "relu5"
  type: "ReLU"
  bottom: "conv5"
  top: "conv5"
}
layer {
  name: "pool5"
  type: "Pooling"
  bottom: "conv5"
  top: "pool5"
  pooling_param {
    pool: MAX
    kernel_size: 3
    stride: 2
  }
}
layer {
  name: "fc6"
  type: "InnerProduct"
  bottom: "pool5"
  top: "fc6"
  param {
    lr_mult: 1
    decay_mult: 1
  }
  param {
    lr_mult: 2
    decay_mult: 0
  }
  inner_product_param {
    num_output: 4096
    weight_filler {
      type: "gaussian"
      std: 0.005
    }
    bias_filler {
      type: "constant"
      value: 1
    }
  }
}
layer {
  name: "relu6"
  type: "ReLU"
  bottom: "fc6"
  top: "fc6"
}
layer {
  name: "drop6"
  type: "Dropout"
  bottom: "fc6"
  top: "fc6"
  dropout_param {
    dropout_ratio: 0.5
  }
}
layer {
  name: "fc7"
  type: "InnerProduct"
  bottom: "fc6"
  top: "fc7"
  param {
    lr_mult: 1
    decay_mult: 1
  }
  param {
    lr_mult: 2
    decay_mult: 0
  }
  inner_product_param {
    num_output: 2048
    weight_filler {
      type: "gaussian"
      std: 0.005
    }
    bias_filler {
      type: "constant"
      value: 1
    }
  }
}
layer {
  name: "relu7"
  type: "ReLU"
  bottom: "fc7"
  top: "fc7"
}
layer {
  name: "drop7"
  type: "Dropout"
  bottom: "fc7"
  top: "fc7"
  dropout_param {
    dropout_ratio: 0.5
  }
}
layer {
  name: "fc8_101"
  type: "InnerProduct"
  bottom: "fc7"
  top: "fc8"
  param {
    lr_mult: 100
    decay_mult: 1
  }
  param {
    lr_mult: 200
    decay_mult: 0
  }
  inner_product_param {
    num_output: 101
    weight_filler {
      type: "gaussian"
      std: 0.01
    }
    bias_filler {
      type: "constant"
      value: 0
    }
  }
}
layer {
  name: "accuracy"
  type: "Accuracy"
  bottom: "fc8"
  bottom: "label"
  top: "accuracy"
}
layer {
  name: "loss"
  type: "SoftmaxWithLoss"
  bottom: "fc8"
  bottom: "label"
  top: "loss"
}
I1124 21:27:32.857447  6637 layer_factory.hpp:77] Creating layer data
I1124 21:27:32.857851  6637 net.cpp:100] Creating Layer data
I1124 21:27:32.857861  6637 net.cpp:408] data -> data
I1124 21:27:32.857877  6637 net.cpp:408] data -> label
I1124 21:27:32.857885  6637 data_transformer.cpp:25] Loading mean file from: mywork/ucf101/imagenet_mean.binaryproto
I1124 21:27:32.858412  6647 db_lmdb.cpp:35] Opened lmdb /home/hadoop/whx/dataset/ucf101/jpgoutput/split1/ucf101_train_lmdb
I1124 21:27:32.864657  6637 data_layer.cpp:41] output data size: 128,3,224,224
I1124 21:27:32.943995  6637 net.cpp:150] Setting up data
I1124 21:27:32.944028  6637 net.cpp:157] Top shape: 128 3 224 224 (19267584)
I1124 21:27:32.944033  6637 net.cpp:157] Top shape: 128 (128)
I1124 21:27:32.944036  6637 net.cpp:165] Memory required for data: 77070848
I1124 21:27:32.944043  6637 layer_factory.hpp:77] Creating layer label_data_1_split
I1124 21:27:32.944054  6637 net.cpp:100] Creating Layer label_data_1_split
I1124 21:27:32.944059  6637 net.cpp:434] label_data_1_split <- label
I1124 21:27:32.944068  6637 net.cpp:408] label_data_1_split -> label_data_1_split_0
I1124 21:27:32.944077  6637 net.cpp:408] label_data_1_split -> label_data_1_split_1
I1124 21:27:32.944104  6637 net.cpp:150] Setting up label_data_1_split
I1124 21:27:32.944109  6637 net.cpp:157] Top shape: 128 (128)
I1124 21:27:32.944113  6637 net.cpp:157] Top shape: 128 (128)
I1124 21:27:32.944115  6637 net.cpp:165] Memory required for data: 77071872
I1124 21:27:32.944118  6637 layer_factory.hpp:77] Creating layer conv1
I1124 21:27:32.944130  6637 net.cpp:100] Creating Layer conv1
I1124 21:27:32.944134  6637 net.cpp:434] conv1 <- data
I1124 21:27:32.944139  6637 net.cpp:408] conv1 -> conv1
I1124 21:27:33.060250  6637 net.cpp:150] Setting up conv1
I1124 21:27:33.060284  6637 net.cpp:157] Top shape: 128 96 109 109 (145993728)
I1124 21:27:33.060288  6637 net.cpp:165] Memory required for data: 661046784
I1124 21:27:33.060302  6637 layer_factory.hpp:77] Creating layer relu1
I1124 21:27:33.060310  6637 net.cpp:100] Creating Layer relu1
I1124 21:27:33.060314  6637 net.cpp:434] relu1 <- conv1
I1124 21:27:33.060320  6637 net.cpp:395] relu1 -> conv1 (in-place)
I1124 21:27:33.060492  6637 net.cpp:150] Setting up relu1
I1124 21:27:33.060501  6637 net.cpp:157] Top shape: 128 96 109 109 (145993728)
I1124 21:27:33.060515  6637 net.cpp:165] Memory required for data: 1245021696
I1124 21:27:33.060519  6637 layer_factory.hpp:77] Creating layer pool1
I1124 21:27:33.060526  6637 net.cpp:100] Creating Layer pool1
I1124 21:27:33.060530  6637 net.cpp:434] pool1 <- conv1
I1124 21:27:33.060535  6637 net.cpp:408] pool1 -> pool1
I1124 21:27:33.060569  6637 net.cpp:150] Setting up pool1
I1124 21:27:33.060575  6637 net.cpp:157] Top shape: 128 96 54 54 (35831808)
I1124 21:27:33.060576  6637 net.cpp:165] Memory required for data: 1388348928
I1124 21:27:33.060580  6637 layer_factory.hpp:77] Creating layer norm1
I1124 21:27:33.060587  6637 net.cpp:100] Creating Layer norm1
I1124 21:27:33.060590  6637 net.cpp:434] norm1 <- pool1
I1124 21:27:33.060595  6637 net.cpp:408] norm1 -> norm1
I1124 21:27:33.060784  6637 net.cpp:150] Setting up norm1
I1124 21:27:33.060794  6637 net.cpp:157] Top shape: 128 96 54 54 (35831808)
I1124 21:27:33.060797  6637 net.cpp:165] Memory required for data: 1531676160
I1124 21:27:33.060801  6637 layer_factory.hpp:77] Creating layer conv2
I1124 21:27:33.060811  6637 net.cpp:100] Creating Layer conv2
I1124 21:27:33.060813  6637 net.cpp:434] conv2 <- norm1
I1124 21:27:33.060819  6637 net.cpp:408] conv2 -> conv2
I1124 21:27:33.072293  6637 net.cpp:150] Setting up conv2
I1124 21:27:33.072321  6637 net.cpp:157] Top shape: 128 256 26 26 (22151168)
I1124 21:27:33.072325  6637 net.cpp:165] Memory required for data: 1620280832
I1124 21:27:33.072336  6637 layer_factory.hpp:77] Creating layer relu2
I1124 21:27:33.072345  6637 net.cpp:100] Creating Layer relu2
I1124 21:27:33.072350  6637 net.cpp:434] relu2 <- conv2
I1124 21:27:33.072355  6637 net.cpp:395] relu2 -> conv2 (in-place)
I1124 21:27:33.072530  6637 net.cpp:150] Setting up relu2
I1124 21:27:33.072540  6637 net.cpp:157] Top shape: 128 256 26 26 (22151168)
I1124 21:27:33.072543  6637 net.cpp:165] Memory required for data: 1708885504
I1124 21:27:33.072547  6637 layer_factory.hpp:77] Creating layer pool2
I1124 21:27:33.072554  6637 net.cpp:100] Creating Layer pool2
I1124 21:27:33.072557  6637 net.cpp:434] pool2 <- conv2
I1124 21:27:33.072562  6637 net.cpp:408] pool2 -> pool2
I1124 21:27:33.072592  6637 net.cpp:150] Setting up pool2
I1124 21:27:33.072597  6637 net.cpp:157] Top shape: 128 256 13 13 (5537792)
I1124 21:27:33.072600  6637 net.cpp:165] Memory required for data: 1731036672
I1124 21:27:33.072603  6637 layer_factory.hpp:77] Creating layer norm2
I1124 21:27:33.072612  6637 net.cpp:100] Creating Layer norm2
I1124 21:27:33.072614  6637 net.cpp:434] norm2 <- pool2
I1124 21:27:33.072619  6637 net.cpp:408] norm2 -> norm2
I1124 21:27:33.072736  6637 net.cpp:150] Setting up norm2
I1124 21:27:33.072743  6637 net.cpp:157] Top shape: 128 256 13 13 (5537792)
I1124 21:27:33.072746  6637 net.cpp:165] Memory required for data: 1753187840
I1124 21:27:33.072749  6637 layer_factory.hpp:77] Creating layer conv3
I1124 21:27:33.072758  6637 net.cpp:100] Creating Layer conv3
I1124 21:27:33.072762  6637 net.cpp:434] conv3 <- norm2
I1124 21:27:33.072767  6637 net.cpp:408] conv3 -> conv3
I1124 21:27:33.093549  6637 net.cpp:150] Setting up conv3
I1124 21:27:33.093565  6637 net.cpp:157] Top shape: 128 512 13 13 (11075584)
I1124 21:27:33.093574  6637 net.cpp:165] Memory required for data: 1797490176
I1124 21:27:33.093582  6637 layer_factory.hpp:77] Creating layer relu3
I1124 21:27:33.093588  6637 net.cpp:100] Creating Layer relu3
I1124 21:27:33.093592  6637 net.cpp:434] relu3 <- conv3
I1124 21:27:33.093597  6637 net.cpp:395] relu3 -> conv3 (in-place)
I1124 21:27:33.093772  6637 net.cpp:150] Setting up relu3
I1124 21:27:33.093781  6637 net.cpp:157] Top shape: 128 512 13 13 (11075584)
I1124 21:27:33.093785  6637 net.cpp:165] Memory required for data: 1841792512
I1124 21:27:33.093787  6637 layer_factory.hpp:77] Creating layer conv4
I1124 21:27:33.093796  6637 net.cpp:100] Creating Layer conv4
I1124 21:27:33.093799  6637 net.cpp:434] conv4 <- conv3
I1124 21:27:33.093806  6637 net.cpp:408] conv4 -> conv4
I1124 21:27:33.134987  6637 net.cpp:150] Setting up conv4
I1124 21:27:33.135021  6637 net.cpp:157] Top shape: 128 512 13 13 (11075584)
I1124 21:27:33.135030  6637 net.cpp:165] Memory required for data: 1886094848
I1124 21:27:33.135037  6637 layer_factory.hpp:77] Creating layer relu4
I1124 21:27:33.135047  6637 net.cpp:100] Creating Layer relu4
I1124 21:27:33.135051  6637 net.cpp:434] relu4 <- conv4
I1124 21:27:33.135056  6637 net.cpp:395] relu4 -> conv4 (in-place)
I1124 21:27:33.135164  6637 net.cpp:150] Setting up relu4
I1124 21:27:33.135170  6637 net.cpp:157] Top shape: 128 512 13 13 (11075584)
I1124 21:27:33.135174  6637 net.cpp:165] Memory required for data: 1930397184
I1124 21:27:33.135176  6637 layer_factory.hpp:77] Creating layer conv5
I1124 21:27:33.135185  6637 net.cpp:100] Creating Layer conv5
I1124 21:27:33.135188  6637 net.cpp:434] conv5 <- conv4
I1124 21:27:33.135195  6637 net.cpp:408] conv5 -> conv5
I1124 21:27:33.176380  6637 net.cpp:150] Setting up conv5
I1124 21:27:33.176410  6637 net.cpp:157] Top shape: 128 512 13 13 (11075584)
I1124 21:27:33.176414  6637 net.cpp:165] Memory required for data: 1974699520
I1124 21:27:33.176424  6637 layer_factory.hpp:77] Creating layer relu5
I1124 21:27:33.176434  6637 net.cpp:100] Creating Layer relu5
I1124 21:27:33.176437  6637 net.cpp:434] relu5 <- conv5
I1124 21:27:33.176442  6637 net.cpp:395] relu5 -> conv5 (in-place)
I1124 21:27:33.176548  6637 net.cpp:150] Setting up relu5
I1124 21:27:33.176556  6637 net.cpp:157] Top shape: 128 512 13 13 (11075584)
I1124 21:27:33.176559  6637 net.cpp:165] Memory required for data: 2019001856
I1124 21:27:33.176563  6637 layer_factory.hpp:77] Creating layer pool5
I1124 21:27:33.176569  6637 net.cpp:100] Creating Layer pool5
I1124 21:27:33.176573  6637 net.cpp:434] pool5 <- conv5
I1124 21:27:33.176578  6637 net.cpp:408] pool5 -> pool5
I1124 21:27:33.176606  6637 net.cpp:150] Setting up pool5
I1124 21:27:33.176610  6637 net.cpp:157] Top shape: 128 512 6 6 (2359296)
I1124 21:27:33.176614  6637 net.cpp:165] Memory required for data: 2028439040
I1124 21:27:33.176616  6637 layer_factory.hpp:77] Creating layer fc6
I1124 21:27:33.176623  6637 net.cpp:100] Creating Layer fc6
I1124 21:27:33.176627  6637 net.cpp:434] fc6 <- pool5
I1124 21:27:33.176632  6637 net.cpp:408] fc6 -> fc6
I1124 21:27:34.474797  6637 net.cpp:150] Setting up fc6
I1124 21:27:34.474827  6637 net.cpp:157] Top shape: 128 4096 (524288)
I1124 21:27:34.474830  6637 net.cpp:165] Memory required for data: 2030536192
I1124 21:27:34.474838  6637 layer_factory.hpp:77] Creating layer relu6
I1124 21:27:34.474848  6637 net.cpp:100] Creating Layer relu6
I1124 21:27:34.474851  6637 net.cpp:434] relu6 <- fc6
I1124 21:27:34.474858  6637 net.cpp:395] relu6 -> fc6 (in-place)
I1124 21:27:34.475081  6637 net.cpp:150] Setting up relu6
I1124 21:27:34.475090  6637 net.cpp:157] Top shape: 128 4096 (524288)
I1124 21:27:34.475095  6637 net.cpp:165] Memory required for data: 2032633344
I1124 21:27:34.475097  6637 layer_factory.hpp:77] Creating layer drop6
I1124 21:27:34.475103  6637 net.cpp:100] Creating Layer drop6
I1124 21:27:34.475107  6637 net.cpp:434] drop6 <- fc6
I1124 21:27:34.475112  6637 net.cpp:395] drop6 -> fc6 (in-place)
I1124 21:27:34.475131  6637 net.cpp:150] Setting up drop6
I1124 21:27:34.475136  6637 net.cpp:157] Top shape: 128 4096 (524288)
I1124 21:27:34.475139  6637 net.cpp:165] Memory required for data: 2034730496
I1124 21:27:34.475142  6637 layer_factory.hpp:77] Creating layer fc7
I1124 21:27:34.475149  6637 net.cpp:100] Creating Layer fc7
I1124 21:27:34.475152  6637 net.cpp:434] fc7 <- fc6
I1124 21:27:34.475158  6637 net.cpp:408] fc7 -> fc7
I1124 21:27:34.619719  6637 net.cpp:150] Setting up fc7
I1124 21:27:34.619750  6637 net.cpp:157] Top shape: 128 2048 (262144)
I1124 21:27:34.619753  6637 net.cpp:165] Memory required for data: 2035779072
I1124 21:27:34.619760  6637 layer_factory.hpp:77] Creating layer relu7
I1124 21:27:34.619770  6637 net.cpp:100] Creating Layer relu7
I1124 21:27:34.619774  6637 net.cpp:434] relu7 <- fc7
I1124 21:27:34.619781  6637 net.cpp:395] relu7 -> fc7 (in-place)
I1124 21:27:34.620039  6637 net.cpp:150] Setting up relu7
I1124 21:27:34.620054  6637 net.cpp:157] Top shape: 128 2048 (262144)
I1124 21:27:34.620062  6637 net.cpp:165] Memory required for data: 2036827648
I1124 21:27:34.620065  6637 layer_factory.hpp:77] Creating layer drop7
I1124 21:27:34.620071  6637 net.cpp:100] Creating Layer drop7
I1124 21:27:34.620074  6637 net.cpp:434] drop7 <- fc7
I1124 21:27:34.620079  6637 net.cpp:395] drop7 -> fc7 (in-place)
I1124 21:27:34.620095  6637 net.cpp:150] Setting up drop7
I1124 21:27:34.620100  6637 net.cpp:157] Top shape: 128 2048 (262144)
I1124 21:27:34.620102  6637 net.cpp:165] Memory required for data: 2037876224
I1124 21:27:34.620105  6637 layer_factory.hpp:77] Creating layer fc8_101
I1124 21:27:34.620116  6637 net.cpp:100] Creating Layer fc8_101
I1124 21:27:34.620121  6637 net.cpp:434] fc8_101 <- fc7
I1124 21:27:34.620126  6637 net.cpp:408] fc8_101 -> fc8
I1124 21:27:34.623869  6637 net.cpp:150] Setting up fc8_101
I1124 21:27:34.623879  6637 net.cpp:157] Top shape: 128 101 (12928)
I1124 21:27:34.623883  6637 net.cpp:165] Memory required for data: 2037927936
I1124 21:27:34.623888  6637 layer_factory.hpp:77] Creating layer fc8_fc8_101_0_split
I1124 21:27:34.623893  6637 net.cpp:100] Creating Layer fc8_fc8_101_0_split
I1124 21:27:34.623896  6637 net.cpp:434] fc8_fc8_101_0_split <- fc8
I1124 21:27:34.623901  6637 net.cpp:408] fc8_fc8_101_0_split -> fc8_fc8_101_0_split_0
I1124 21:27:34.623908  6637 net.cpp:408] fc8_fc8_101_0_split -> fc8_fc8_101_0_split_1
I1124 21:27:34.623929  6637 net.cpp:150] Setting up fc8_fc8_101_0_split
I1124 21:27:34.623932  6637 net.cpp:157] Top shape: 128 101 (12928)
I1124 21:27:34.623936  6637 net.cpp:157] Top shape: 128 101 (12928)
I1124 21:27:34.623939  6637 net.cpp:165] Memory required for data: 2038031360
I1124 21:27:34.623941  6637 layer_factory.hpp:77] Creating layer accuracy
I1124 21:27:34.623947  6637 net.cpp:100] Creating Layer accuracy
I1124 21:27:34.623950  6637 net.cpp:434] accuracy <- fc8_fc8_101_0_split_0
I1124 21:27:34.623955  6637 net.cpp:434] accuracy <- label_data_1_split_0
I1124 21:27:34.623958  6637 net.cpp:408] accuracy -> accuracy
…
I1124 21:27:34.624874  6637 net.cpp:322] The NetState phase (1) differed from the phase (0) specified by a rule in layer data
I1124 21:27:34.625051  6637 net.cpp:58] Initializing net from parameters: 
name: "CaffeNet"
state {
  phase: TEST
}
layer {
  name: "data"
  type: "Data"
  top: "data"
  top: "label"
  include {
    phase: TEST
  }
  transform_param {
    mirror: false
    crop_size: 224
    mean_file: "mywork/ucf101/imagenet_mean.binaryproto"
  }
  data_param {
    source: "/home/hadoop/whx/dataset/ucf101/jpgoutput/split1/ucf101_val_lmdb"
    batch_size: 50
    backend: LMDB
  }
}
layer {
  name: "conv1"
  type: "Convolution"
  bottom: "data"
  top: "conv1"
  param {
    lr_mult: 1
    decay_mult: 1
  }
  param {
    lr_mult: 2
    decay_mult: 0
  }
  convolution_param {
    num_output: 96
    kernel_size: 7
    stride: 2
    weight_filler {
      type: "gaussian"
      std: 0.01
    }
    bias_filler {
      type: "constant"
      value: 0
    }
  }
}
layer {
  name: "relu1"
  type: "ReLU"
  bottom: "conv1"
  top: "conv1"
}
layer {
  name: "pool1"
  type: "Pooling"
  bottom: "conv1"
  top: "pool1"
  pooling_param {
    pool: MAX
    kernel_size: 3
    stride: 2
  }
}
layer {
  name: "norm1"
  type: "LRN"
  bottom: "pool1"
  top: "norm1"
  lrn_param {
    local_size: 5
    alpha: 0.0001
    beta: 0.75
  }
}
layer {
  name: "conv2"
  type: "Convolution"
  bottom: "norm1"
  top: "conv2"
  param {
    lr_mult: 1
    decay_mult: 1
  }
  param {
    lr_mult: 2
    decay_mult: 0
  }
  convolution_param {
    num_output: 256
    pad: 1
    kernel_size: 5
    stride: 2
    weight_filler {
      type: "gaussian"
      std: 0.01
    }
    bias_filler {
      type: "constant"
      value: 1
    }
  }
}
layer {
  name: "relu2"
  type: "ReLU"
  bottom: "conv2"
  top: "conv2"
}
layer {
  name: "pool2"
  type: "Pooling"
  bottom: "conv2"
  top: "pool2"
  pooling_param {
    pool: MAX
    kernel_size: 3
    stride: 2
  }
}
layer {
  name: "norm2"
  type: "LRN"
  bottom: "pool2"
  top: "norm2"
  lrn_param {
    local_size: 5
    alpha: 0.0001
    beta: 0.75
  }
}
layer {
  name: "conv3"
  type: "Convolution"
  bottom: "norm2"
  top: "conv3"
  param {
    lr_mult: 1
    decay_mult: 1
  }
  param {
    lr_mult: 2
    decay_mult: 0
  }
  convolution_param {
    num_output: 512
    pad: 1
    kernel_size: 3
    weight_filler {
      type: "gaussian"
      std: 0.01
    }
    bias_filler {
      type: "constant"
      value: 0
    }
  }
}
layer {
  name: "relu3"
  type: "ReLU"
  bottom: "conv3"
  top: "conv3"
}
layer {
  name: "conv4"
  type: "Convolution"
  bottom: "conv3"
  top: "conv4"
  param {
    lr_mult: 1
    decay_mult: 1
  }
  param {
    lr_mult: 2
    decay_mult: 0
  }
  convolution_param {
    num_output: 512
    pad: 1
    kernel_size: 3
    weight_filler {
      type: "gaussian"
      std: 0.01
    }
    bias_filler {
      type: "constant"
      value: 1
    }
  }
}
layer {
  name: "relu4"
  type: "ReLU"
  bottom: "conv4"
  top: "conv4"
}
layer {
  name: "conv5"
  type: "Convolution"
  bottom: "conv4"
  top: "conv5"
  param {
    lr_mult: 1
    decay_mult: 1
  }
  param {
    lr_mult: 2
    decay_mult: 0
  }
  convolution_param {
    num_output: 512
    pad: 1
    kernel_size: 3
    weight_filler {
      type: "gaussian"
      std: 0.01
    }
    bias_filler {
      type: "constant"
      value: 1
    }
  }
}
layer {
  name: "relu5"
  type: "ReLU"
  bottom: "conv5"
  top: "conv5"
}
layer {
  name: "pool5"
  type: "Pooling"
  bottom: "conv5"
  top: "pool5"
  pooling_param {
    pool: MAX
    kernel_size: 3
    stride: 2
  }
}
layer {
  name: "fc6"
  type: "InnerProduct"
  bottom: "pool5"
  top: "fc6"
  param {
    lr_mult: 1
    decay_mult: 1
  }
  param {
    lr_mult: 2
    decay_mult: 0
  }
  inner_product_param {
    num_output: 4096
    weight_filler {
      type: "gaussian"
      std: 0.005
    }
    bias_filler {
      type: "constant"
      value: 1
    }
  }
}
layer {
  name: "relu6"
  type: "ReLU"
  bottom: "fc6"
  top: "fc6"
}
layer {
  name: "drop6"
  type: "Dropout"
  bottom: "fc6"
  top: "fc6"
  dropout_param {
    dropout_ratio: 0.5
  }
}
layer {
  name: "fc7"
  type: "InnerProduct"
  bottom: "fc6"
  top: "fc7"
  param {
    lr_mult: 1
    decay_mult: 1
  }
  param {
    lr_mult: 2
    decay_mult: 0
  }
  inner_product_param {
    num_output: 2048
    weight_filler {
      type: "gaussian"
      std: 0.005
    }
    bias_filler {
      type: "constant"
      value: 1
    }
  }
}
layer {
  name: "relu7"
  type: "ReLU"
  bottom: "fc7"
  top: "fc7"
}
layer {
  name: "drop7"
  type: "Dropout"
  bottom: "fc7"
  top: "fc7"
  dropout_param {
    dropout_ratio: 0.5
  }
}
layer {
  name: "fc8_101"
  type: "InnerProduct"
  bottom: "fc7"
  top: "fc8"
  param {
    lr_mult: 100
    decay_mult: 1
  }
  param {
    lr_mult: 200
    decay_mult: 0
  }
  inner_product_param {
    num_output: 101
    weight_filler {
      type: "gaussian"
      std: 0.01
    }
    bias_filler {
      type: "constant"
      value: 0
    }
  }
}
layer {
  name: "accuracy"
  type: "Accuracy"
  bottom: "fc8"
  bottom: "label"
  top: "accuracy"
}
layer {
  name: "loss"
  type: "SoftmaxWithLoss"
  bottom: "fc8"
  bottom: "label"
  top: "loss"
}
I1124 21:27:34.625129  6637 layer_factory.hpp:77] Creating layer data
I1124 21:27:34.625187  6637 net.cpp:100] Creating Layer data
I1124 21:27:34.625196  6637 net.cpp:408] data -> data
I1124 21:27:34.625203  6637 net.cpp:408] data -> label
I1124 21:27:34.625210  6637 data_transformer.cpp:25] Loading mean file from: mywork/ucf101/imagenet_mean.binaryproto
I1124 21:27:34.625787  6650 db_lmdb.cpp:35] Opened lmdb /home/hadoop/whx/dataset/ucf101/jpgoutput/split1/ucf101_val_lmdb
I1124 21:27:34.626478  6637 data_layer.cpp:41] output data size: 50,3,224,224
I1124 21:27:34.657727  6637 net.cpp:150] Setting up data
I1124 21:27:34.657757  6637 net.cpp:157] Top shape: 50 3 224 224 (7526400)
I1124 21:27:34.657763  6637 net.cpp:157] Top shape: 50 (50)
I1124 21:27:34.657765  6637 net.cpp:165] Memory required for data: 30105800
I1124 21:27:34.657770  6637 layer_factory.hpp:77] Creating layer label_data_1_split
I1124 21:27:34.657781  6637 net.cpp:100] Creating Layer label_data_1_split
I1124 21:27:34.657784  6637 net.cpp:434] label_data_1_split <- label
I1124 21:27:34.657790  6637 net.cpp:408] label_data_1_split -> label_data_1_split_0
I1124 21:27:34.657799  6637 net.cpp:408] label_data_1_split -> label_data_1_split_1
I1124 21:27:34.657837  6637 net.cpp:150] Setting up label_data_1_split
I1124 21:27:34.657843  6637 net.cpp:157] Top shape: 50 (50)
I1124 21:27:34.657846  6637 net.cpp:157] Top shape: 50 (50)
I1124 21:27:34.657850  6637 net.cpp:165] Memory required for data: 30106200
I1124 21:27:34.657851  6637 layer_factory.hpp:77] Creating layer conv1
I1124 21:27:34.657861  6637 net.cpp:100] Creating Layer conv1
I1124 21:27:34.657865  6637 net.cpp:434] conv1 <- data
I1124 21:27:34.657874  6637 net.cpp:408] conv1 -> conv1
I1124 21:27:34.661702  6637 net.cpp:150] Setting up conv1
I1124 21:27:34.661713  6637 net.cpp:157] Top shape: 50 96 109 109 (57028800)
I1124 21:27:34.661717  6637 net.cpp:165] Memory required for data: 258221400
I1124 21:27:34.661725  6637 layer_factory.hpp:77] Creating layer relu1
I1124 21:27:34.661732  6637 net.cpp:100] Creating Layer relu1
I1124 21:27:34.661736  6637 net.cpp:434] relu1 <- conv1
I1124 21:27:34.661739  6637 net.cpp:395] relu1 -> conv1 (in-place)
I1124 21:27:34.661855  6637 net.cpp:150] Setting up relu1
I1124 21:27:34.661862  6637 net.cpp:157] Top shape: 50 96 109 109 (57028800)
I1124 21:27:34.661865  6637 net.cpp:165] Memory required for data: 486336600
I1124 21:27:34.661869  6637 layer_factory.hpp:77] Creating layer pool1
I1124 21:27:34.661875  6637 net.cpp:100] Creating Layer pool1
I1124 21:27:34.661877  6637 net.cpp:434] pool1 <- conv1
I1124 21:27:34.661882  6637 net.cpp:408] pool1 -> pool1
I1124 21:27:34.661909  6637 net.cpp:150] Setting up pool1
I1124 21:27:34.661914  6637 net.cpp:157] Top shape: 50 96 54 54 (13996800)
I1124 21:27:34.661917  6637 net.cpp:165] Memory required for data: 542323800
I1124 21:27:34.661921  6637 layer_factory.hpp:77] Creating layer norm1
I1124 21:27:34.661926  6637 net.cpp:100] Creating Layer norm1
I1124 21:27:34.661929  6637 net.cpp:434] norm1 <- pool1
I1124 21:27:34.661934  6637 net.cpp:408] norm1 -> norm1
I1124 21:27:34.662130  6637 net.cpp:150] Setting up norm1
I1124 21:27:34.662139  6637 net.cpp:157] Top shape: 50 96 54 54 (13996800)
I1124 21:27:34.662143  6637 net.cpp:165] Memory required for data: 598311000
I1124 21:27:34.662147  6637 layer_factory.hpp:77] Creating layer conv2
I1124 21:27:34.662154  6637 net.cpp:100] Creating Layer conv2
I1124 21:27:34.662158  6637 net.cpp:434] conv2 <- norm1
I1124 21:27:34.662163  6637 net.cpp:408] conv2 -> conv2
I1124 21:27:34.673512  6637 net.cpp:150] Setting up conv2
I1124 21:27:34.673540  6637 net.cpp:157] Top shape: 50 256 26 26 (8652800)
I1124 21:27:34.673544  6637 net.cpp:165] Memory required for data: 632922200
I1124 21:27:34.673553  6637 layer_factory.hpp:77] Creating layer relu2
I1124 21:27:34.673562  6637 net.cpp:100] Creating Layer relu2
I1124 21:27:34.673565  6637 net.cpp:434] relu2 <- conv2
I1124 21:27:34.673578  6637 net.cpp:395] relu2 -> conv2 (in-place)
I1124 21:27:34.673682  6637 net.cpp:150] Setting up relu2
I1124 21:27:34.673689  6637 net.cpp:157] Top shape: 50 256 26 26 (8652800)
I1124 21:27:34.673692  6637 net.cpp:165] Memory required for data: 667533400
I1124 21:27:34.673696  6637 layer_factory.hpp:77] Creating layer pool2
I1124 21:27:34.673702  6637 net.cpp:100] Creating Layer pool2
I1124 21:27:34.673705  6637 net.cpp:434] pool2 <- conv2
I1124 21:27:34.673709  6637 net.cpp:408] pool2 -> pool2
I1124 21:27:34.673738  6637 net.cpp:150] Setting up pool2
I1124 21:27:34.673743  6637 net.cpp:157] Top shape: 50 256 13 13 (2163200)
I1124 21:27:34.673745  6637 net.cpp:165] Memory required for data: 676186200
I1124 21:27:34.673748  6637 layer_factory.hpp:77] Creating layer norm2
I1124 21:27:34.673754  6637 net.cpp:100] Creating Layer norm2
I1124 21:27:34.673758  6637 net.cpp:434] norm2 <- pool2
I1124 21:27:34.673761  6637 net.cpp:408] norm2 -> norm2
I1124 21:27:34.673949  6637 net.cpp:150] Setting up norm2
I1124 21:27:34.673957  6637 net.cpp:157] Top shape: 50 256 13 13 (2163200)
I1124 21:27:34.673960  6637 net.cpp:165] Memory required for data: 684839000
I1124 21:27:34.673964  6637 layer_factory.hpp:77] Creating layer conv3
I1124 21:27:34.673972  6637 net.cpp:100] Creating Layer conv3
I1124 21:27:34.673975  6637 net.cpp:434] conv3 <- norm2
I1124 21:27:34.673980  6637 net.cpp:408] conv3 -> conv3
I1124 21:27:34.695000  6637 net.cpp:150] Setting up conv3
I1124 21:27:34.695027  6637 net.cpp:157] Top shape: 50 512 13 13 (4326400)
I1124 21:27:34.695031  6637 net.cpp:165] Memory required for data: 702144600
I1124 21:27:34.695041  6637 layer_factory.hpp:77] Creating layer relu3
I1124 21:27:34.695050  6637 net.cpp:100] Creating Layer relu3
I1124 21:27:34.695055  6637 net.cpp:434] relu3 <- conv3
I1124 21:27:34.695067  6637 net.cpp:395] relu3 -> conv3 (in-place)
I1124 21:27:34.695175  6637 net.cpp:150] Setting up relu3
I1124 21:27:34.695183  6637 net.cpp:157] Top shape: 50 512 13 13 (4326400)
I1124 21:27:34.695185  6637 net.cpp:165] Memory required for data: 719450200
I1124 21:27:34.695188  6637 layer_factory.hpp:77] Creating layer conv4
I1124 21:27:34.695197  6637 net.cpp:100] Creating Layer conv4
I1124 21:27:34.695200  6637 net.cpp:434] conv4 <- conv3
I1124 21:27:34.695205  6637 net.cpp:408] conv4 -> conv4
I1124 21:27:34.736873  6637 net.cpp:150] Setting up conv4
I1124 21:27:34.736901  6637 net.cpp:157] Top shape: 50 512 13 13 (4326400)
I1124 21:27:34.736906  6637 net.cpp:165] Memory required for data: 736755800
I1124 21:27:34.736912  6637 layer_factory.hpp:77] Creating layer relu4
I1124 21:27:34.736920  6637 net.cpp:100] Creating Layer relu4
I1124 21:27:34.736924  6637 net.cpp:434] relu4 <- conv4
I1124 21:27:34.736929  6637 net.cpp:395] relu4 -> conv4 (in-place)
I1124 21:27:34.737030  6637 net.cpp:150] Setting up relu4
I1124 21:27:34.737037  6637 net.cpp:157] Top shape: 50 512 13 13 (4326400)
I1124 21:27:34.737040  6637 net.cpp:165] Memory required for data: 754061400
I1124 21:27:34.737043  6637 layer_factory.hpp:77] Creating layer conv5
I1124 21:27:34.737052  6637 net.cpp:100] Creating Layer conv5
I1124 21:27:34.737056  6637 net.cpp:434] conv5 <- conv4
I1124 21:27:34.737061  6637 net.cpp:408] conv5 -> conv5
I1124 21:27:34.778290  6637 net.cpp:150] Setting up conv5
I1124 21:27:34.778317  6637 net.cpp:157] Top shape: 50 512 13 13 (4326400)
I1124 21:27:34.778321  6637 net.cpp:165] Memory required for data: 771367000
I1124 21:27:34.778331  6637 layer_factory.hpp:77] Creating layer relu5
I1124 21:27:34.778338  6637 net.cpp:100] Creating Layer relu5
I1124 21:27:34.778342  6637 net.cpp:434] relu5 <- conv5
I1124 21:27:34.778347  6637 net.cpp:395] relu5 -> conv5 (in-place)
I1124 21:27:34.778525  6637 net.cpp:150] Setting up relu5
I1124 21:27:34.778534  6637 net.cpp:157] Top shape: 50 512 13 13 (4326400)
I1124 21:27:34.778537  6637 net.cpp:165] Memory required for data: 788672600
I1124 21:27:34.778540  6637 layer_factory.hpp:77] Creating layer pool5
I1124 21:27:34.778548  6637 net.cpp:100] Creating Layer pool5
I1124 21:27:34.778551  6637 net.cpp:434] pool5 <- conv5
I1124 21:27:34.778556  6637 net.cpp:408] pool5 -> pool5
I1124 21:27:34.778587  6637 net.cpp:150] Setting up pool5
I1124 21:27:34.778592  6637 net.cpp:157] Top shape: 50 512 6 6 (921600)
I1124 21:27:34.778595  6637 net.cpp:165] Memory required for data: 792359000
I1124 21:27:34.778599  6637 layer_factory.hpp:77] Creating layer fc6
I1124 21:27:34.778604  6637 net.cpp:100] Creating Layer fc6
I1124 21:27:34.778607  6637 net.cpp:434] fc6 <- pool5
I1124 21:27:34.778611  6637 net.cpp:408] fc6 -> fc6
I1124 21:27:36.117884  6637 net.cpp:150] Setting up fc6
I1124 21:27:36.117914  6637 net.cpp:157] Top shape: 50 4096 (204800)
I1124 21:27:36.117918  6637 net.cpp:165] Memory required for data: 793178200
I1124 21:27:36.117925  6637 layer_factory.hpp:77] Creating layer relu6
I1124 21:27:36.117933  6637 net.cpp:100] Creating Layer relu6
I1124 21:27:36.117938  6637 net.cpp:434] relu6 <- fc6
I1124 21:27:36.117944  6637 net.cpp:395] relu6 -> fc6 (in-place)
I1124 21:27:36.118196  6637 net.cpp:150] Setting up relu6
I1124 21:27:36.118204  6637 net.cpp:157] Top shape: 50 4096 (204800)
I1124 21:27:36.118207  6637 net.cpp:165] Memory required for data: 793997400
I1124 21:27:36.118211  6637 layer_factory.hpp:77] Creating layer drop6
I1124 21:27:36.118216  6637 net.cpp:100] Creating Layer drop6
I1124 21:27:36.118221  6637 net.cpp:434] drop6 <- fc6
I1124 21:27:36.118224  6637 net.cpp:395] drop6 -> fc6 (in-place)
I1124 21:27:36.118245  6637 net.cpp:150] Setting up drop6
I1124 21:27:36.118249  6637 net.cpp:157] Top shape: 50 4096 (204800)
I1124 21:27:36.118252  6637 net.cpp:165] Memory required for data: 794816600
I1124 21:27:36.118255  6637 layer_factory.hpp:77] Creating layer fc7
I1124 21:27:36.118261  6637 net.cpp:100] Creating Layer fc7
I1124 21:27:36.118271  6637 net.cpp:434] fc7 <- fc6
I1124 21:27:36.118283  6637 net.cpp:408] fc7 -> fc7
I1124 21:27:36.267143  6637 net.cpp:150] Setting up fc7
I1124 21:27:36.267173  6637 net.cpp:157] Top shape: 50 2048 (102400)
I1124 21:27:36.267175  6637 net.cpp:165] Memory required for data: 795226200
I1124 21:27:36.267182  6637 layer_factory.hpp:77] Creating layer relu7
I1124 21:27:36.267191  6637 net.cpp:100] Creating Layer relu7
I1124 21:27:36.267195  6637 net.cpp:434] relu7 <- fc7
I1124 21:27:36.267200  6637 net.cpp:395] relu7 -> fc7 (in-place)
I1124 21:27:36.267460  6637 net.cpp:150] Setting up relu7
I1124 21:27:36.267469  6637 net.cpp:157] Top shape: 50 2048 (102400)
I1124 21:27:36.267472  6637 net.cpp:165] Memory required for data: 795635800
I1124 21:27:36.267475  6637 layer_factory.hpp:77] Creating layer drop7
I1124 21:27:36.267482  6637 net.cpp:100] Creating Layer drop7
I1124 21:27:36.267484  6637 net.cpp:434] drop7 <- fc7
I1124 21:27:36.267488  6637 net.cpp:395] drop7 -> fc7 (in-place)
I1124 21:27:36.267509  6637 net.cpp:150] Setting up drop7
I1124 21:27:36.267514  6637 net.cpp:157] Top shape: 50 2048 (102400)
I1124 21:27:36.267518  6637 net.cpp:165] Memory required for data: 796045400
I1124 21:27:36.267519  6637 layer_factory.hpp:77] Creating layer fc8_101
I1124 21:27:36.267525  6637 net.cpp:100] Creating Layer fc8_101
I1124 21:27:36.267529  6637 net.cpp:434] fc8_101 <- fc7
I1124 21:27:36.267534  6637 net.cpp:408] fc8_101 -> fc8
I1124 21:27:36.271363  6637 net.cpp:150] Setting up fc8_101
I1124 21:27:36.271373  6637 net.cpp:157] Top shape: 50 101 (5050)
I1124 21:27:36.271375  6637 net.cpp:165] Memory required for data: 796065600
I1124 21:27:36.271380  6637 layer_factory.hpp:77] Creating layer fc8_fc8_101_0_split
I1124 21:27:36.271386  6637 net.cpp:100] Creating Layer fc8_fc8_101_0_split
I1124 21:27:36.271389  6637 net.cpp:434] fc8_fc8_101_0_split <- fc8
I1124 21:27:36.271394  6637 net.cpp:408] fc8_fc8_101_0_split -> fc8_fc8_101_0_split_0
I1124 21:27:36.271399  6637 net.cpp:408] fc8_fc8_101_0_split -> fc8_fc8_101_0_split_1
I1124 21:27:36.271422  6637 net.cpp:150] Setting up fc8_fc8_101_0_split
I1124 21:27:36.271427  6637 net.cpp:157] Top shape: 50 101 (5050)
I1124 21:27:36.271430  6637 net.cpp:157] Top shape: 50 101 (5050)
I1124 21:27:36.271433  6637 net.cpp:165] Memory required for data: 796106000
I1124 21:27:36.271436  6637 layer_factory.hpp:77] Creating layer accuracy
I1124 21:27:36.271440  6637 net.cpp:100] Creating Layer accuracy
I1124 21:27:36.271443  6637 net.cpp:434] accuracy <- fc8_fc8_101_0_split_0
I1124 21:27:36.271447  6637 net.cpp:434] accuracy <- label_data_1_split_0
I1124 21:27:36.271451  6637 net.cpp:408] accuracy -> accuracy
…
